{
  "nodes": [
    {
      "op": "null", 
      "name": "label1", 
      "inputs": []
    }, 
    {
      "op": "SliceChannel", 
      "name": "lvl1 _label_split", 
      "attrs": {
        "axis": "1", 
        "num_outputs": "75", 
        "squeeze_axis": "0"
      }, 
      "inputs": [[0, 0, 0]]
    }, 
    {
      "op": "null", 
      "name": "data", 
      "inputs": []
    }, 
    {
      "op": "null", 
      "name": "conv1_weight", 
      "attrs": {
        "kernel": "(3, 3)", 
        "no_bias": "True", 
        "num_filter": "32", 
        "pad": "(1, 1)", 
        "stride": "(2, 2)"
      }, 
      "inputs": []
    }, 
    {
      "op": "Convolution", 
      "name": "conv1", 
      "attrs": {
        "kernel": "(3, 3)", 
        "no_bias": "True", 
        "num_filter": "32", 
        "pad": "(1, 1)", 
        "stride": "(2, 2)"
      }, 
      "inputs": [[2, 0, 0], [3, 0, 0]]
    }, 
    {
      "op": "null", 
      "name": "conv1_bn_gamma", 
      "attrs": {
        "eps": "0.0001", 
        "fix_gamma": "False", 
        "use_global_stats": "True"
      }, 
      "inputs": []
    }, 
    {
      "op": "null", 
      "name": "conv1_bn_beta", 
      "attrs": {
        "eps": "0.0001", 
        "fix_gamma": "False", 
        "use_global_stats": "True"
      }, 
      "inputs": []
    }, 
    {
      "op": "null", 
      "name": "conv1_bn_moving_mean", 
      "attrs": {
        "__init__": "[\"zero\", {}]", 
        "eps": "0.0001", 
        "fix_gamma": "False", 
        "use_global_stats": "True"
      }, 
      "inputs": []
    }, 
    {
      "op": "null", 
      "name": "conv1_bn_moving_var", 
      "attrs": {
        "__init__": "[\"one\", {}]", 
        "eps": "0.0001", 
        "fix_gamma": "False", 
        "use_global_stats": "True"
      }, 
      "inputs": []
    }, 
    {
      "op": "BatchNorm", 
      "name": "conv1_bn", 
      "attrs": {
        "eps": "0.0001", 
        "fix_gamma": "False", 
        "use_global_stats": "True"
      }, 
      "inputs": [[4, 0, 0], [5, 0, 0], [6, 0, 0], [7, 0, 1], [8, 0, 1]]
    }, 
    {
      "op": "Activation", 
      "name": "relu1", 
      "attrs": {"act_type": "relu"}, 
      "inputs": [[9, 0, 0]]
    }, 
    {
      "op": "null", 
      "name": "conv2_1_expand_weight", 
      "attrs": {
        "kernel": "(1, 1)", 
        "no_bias": "True", 
        "num_filter": "32", 
        "pad": "(0, 0)", 
        "stride": "(1, 1)"
      }, 
      "inputs": []
    }, 
    {
      "op": "Convolution", 
      "name": "conv2_1_expand", 
      "attrs": {
        "kernel": "(1, 1)", 
        "no_bias": "True", 
        "num_filter": "32", 
        "pad": "(0, 0)", 
        "stride": "(1, 1)"
      }, 
      "inputs": [[10, 0, 0], [11, 0, 0]]
    }, 
    {
      "op": "null", 
      "name": "conv2_1_expand_bn_gamma", 
      "attrs": {
        "eps": "0.0001", 
        "fix_gamma": "False", 
        "use_global_stats": "True"
      }, 
      "inputs": []
    }, 
    {
      "op": "null", 
      "name": "conv2_1_expand_bn_beta", 
      "attrs": {
        "eps": "0.0001", 
        "fix_gamma": "False", 
        "use_global_stats": "True"
      }, 
      "inputs": []
    }, 
    {
      "op": "null", 
      "name": "conv2_1_expand_bn_moving_mean", 
      "attrs": {
        "__init__": "[\"zero\", {}]", 
        "eps": "0.0001", 
        "fix_gamma": "False", 
        "use_global_stats": "True"
      }, 
      "inputs": []
    }, 
    {
      "op": "null", 
      "name": "conv2_1_expand_bn_moving_var", 
      "attrs": {
        "__init__": "[\"one\", {}]", 
        "eps": "0.0001", 
        "fix_gamma": "False", 
        "use_global_stats": "True"
      }, 
      "inputs": []
    }, 
    {
      "op": "BatchNorm", 
      "name": "conv2_1_expand_bn", 
      "attrs": {
        "eps": "0.0001", 
        "fix_gamma": "False", 
        "use_global_stats": "True"
      }, 
      "inputs": [[12, 0, 0], [13, 0, 0], [14, 0, 0], [15, 0, 1], [16, 0, 1]]
    }, 
    {
      "op": "Activation", 
      "name": "relu2_1_expand", 
      "attrs": {"act_type": "relu"}, 
      "inputs": [[17, 0, 0]]
    }, 
    {
      "op": "null", 
      "name": "conv2_1_dwise_weight", 
      "attrs": {
        "kernel": "(3, 3)", 
        "no_bias": "True", 
        "num_filter": "32", 
        "num_group": "32", 
        "pad": "(1, 1)", 
        "stride": "(1, 1)"
      }, 
      "inputs": []
    }, 
    {
      "op": "Convolution", 
      "name": "conv2_1_dwise", 
      "attrs": {
        "kernel": "(3, 3)", 
        "no_bias": "True", 
        "num_filter": "32", 
        "num_group": "32", 
        "pad": "(1, 1)", 
        "stride": "(1, 1)"
      }, 
      "inputs": [[18, 0, 0], [19, 0, 0]]
    }, 
    {
      "op": "null", 
      "name": "conv2_1_dwise_bn_gamma", 
      "attrs": {
        "eps": "0.0001", 
        "fix_gamma": "False", 
        "use_global_stats": "True"
      }, 
      "inputs": []
    }, 
    {
      "op": "null", 
      "name": "conv2_1_dwise_bn_beta", 
      "attrs": {
        "eps": "0.0001", 
        "fix_gamma": "False", 
        "use_global_stats": "True"
      }, 
      "inputs": []
    }, 
    {
      "op": "null", 
      "name": "conv2_1_dwise_bn_moving_mean", 
      "attrs": {
        "__init__": "[\"zero\", {}]", 
        "eps": "0.0001", 
        "fix_gamma": "False", 
        "use_global_stats": "True"
      }, 
      "inputs": []
    }, 
    {
      "op": "null", 
      "name": "conv2_1_dwise_bn_moving_var", 
      "attrs": {
        "__init__": "[\"one\", {}]", 
        "eps": "0.0001", 
        "fix_gamma": "False", 
        "use_global_stats": "True"
      }, 
      "inputs": []
    }, 
    {
      "op": "BatchNorm", 
      "name": "conv2_1_dwise_bn", 
      "attrs": {
        "eps": "0.0001", 
        "fix_gamma": "False", 
        "use_global_stats": "True"
      }, 
      "inputs": [[20, 0, 0], [21, 0, 0], [22, 0, 0], [23, 0, 1], [24, 0, 1]]
    }, 
    {
      "op": "Activation", 
      "name": "relu2_1_dwise", 
      "attrs": {"act_type": "relu"}, 
      "inputs": [[25, 0, 0]]
    }, 
    {
      "op": "null", 
      "name": "conv2_1_linear_weight", 
      "attrs": {
        "kernel": "(1, 1)", 
        "no_bias": "True", 
        "num_filter": "16", 
        "pad": "(0, 0)", 
        "stride": "(1, 1)"
      }, 
      "inputs": []
    }, 
    {
      "op": "Convolution", 
      "name": "conv2_1_linear", 
      "attrs": {
        "kernel": "(1, 1)", 
        "no_bias": "True", 
        "num_filter": "16", 
        "pad": "(0, 0)", 
        "stride": "(1, 1)"
      }, 
      "inputs": [[26, 0, 0], [27, 0, 0]]
    }, 
    {
      "op": "null", 
      "name": "conv2_1_linear_bn_gamma", 
      "attrs": {
        "eps": "0.0001", 
        "fix_gamma": "False", 
        "use_global_stats": "True"
      }, 
      "inputs": []
    }, 
    {
      "op": "null", 
      "name": "conv2_1_linear_bn_beta", 
      "attrs": {
        "eps": "0.0001", 
        "fix_gamma": "False", 
        "use_global_stats": "True"
      }, 
      "inputs": []
    }, 
    {
      "op": "null", 
      "name": "conv2_1_linear_bn_moving_mean", 
      "attrs": {
        "__init__": "[\"zero\", {}]", 
        "eps": "0.0001", 
        "fix_gamma": "False", 
        "use_global_stats": "True"
      }, 
      "inputs": []
    }, 
    {
      "op": "null", 
      "name": "conv2_1_linear_bn_moving_var", 
      "attrs": {
        "__init__": "[\"one\", {}]", 
        "eps": "0.0001", 
        "fix_gamma": "False", 
        "use_global_stats": "True"
      }, 
      "inputs": []
    }, 
    {
      "op": "BatchNorm", 
      "name": "conv2_1_linear_bn", 
      "attrs": {
        "eps": "0.0001", 
        "fix_gamma": "False", 
        "use_global_stats": "True"
      }, 
      "inputs": [[28, 0, 0], [29, 0, 0], [30, 0, 0], [31, 0, 1], [32, 0, 1]]
    }, 
    {
      "op": "null", 
      "name": "conv2_2_expand_weight", 
      "attrs": {
        "kernel": "(1, 1)", 
        "no_bias": "True", 
        "num_filter": "96", 
        "pad": "(0, 0)", 
        "stride": "(1, 1)"
      }, 
      "inputs": []
    }, 
    {
      "op": "Convolution", 
      "name": "conv2_2_expand", 
      "attrs": {
        "kernel": "(1, 1)", 
        "no_bias": "True", 
        "num_filter": "96", 
        "pad": "(0, 0)", 
        "stride": "(1, 1)"
      }, 
      "inputs": [[33, 0, 0], [34, 0, 0]]
    }, 
    {
      "op": "null", 
      "name": "conv2_2_expand_bn_gamma", 
      "attrs": {
        "eps": "0.0001", 
        "fix_gamma": "False", 
        "use_global_stats": "True"
      }, 
      "inputs": []
    }, 
    {
      "op": "null", 
      "name": "conv2_2_expand_bn_beta", 
      "attrs": {
        "eps": "0.0001", 
        "fix_gamma": "False", 
        "use_global_stats": "True"
      }, 
      "inputs": []
    }, 
    {
      "op": "null", 
      "name": "conv2_2_expand_bn_moving_mean", 
      "attrs": {
        "__init__": "[\"zero\", {}]", 
        "eps": "0.0001", 
        "fix_gamma": "False", 
        "use_global_stats": "True"
      }, 
      "inputs": []
    }, 
    {
      "op": "null", 
      "name": "conv2_2_expand_bn_moving_var", 
      "attrs": {
        "__init__": "[\"one\", {}]", 
        "eps": "0.0001", 
        "fix_gamma": "False", 
        "use_global_stats": "True"
      }, 
      "inputs": []
    }, 
    {
      "op": "BatchNorm", 
      "name": "conv2_2_expand_bn", 
      "attrs": {
        "eps": "0.0001", 
        "fix_gamma": "False", 
        "use_global_stats": "True"
      }, 
      "inputs": [[35, 0, 0], [36, 0, 0], [37, 0, 0], [38, 0, 1], [39, 0, 1]]
    }, 
    {
      "op": "Activation", 
      "name": "relu2_2_expand", 
      "attrs": {"act_type": "relu"}, 
      "inputs": [[40, 0, 0]]
    }, 
    {
      "op": "null", 
      "name": "conv2_2_dwise_weight", 
      "attrs": {
        "kernel": "(3, 3)", 
        "no_bias": "True", 
        "num_filter": "96", 
        "num_group": "96", 
        "pad": "(1, 1)", 
        "stride": "(2, 2)"
      }, 
      "inputs": []
    }, 
    {
      "op": "Convolution", 
      "name": "conv2_2_dwise", 
      "attrs": {
        "kernel": "(3, 3)", 
        "no_bias": "True", 
        "num_filter": "96", 
        "num_group": "96", 
        "pad": "(1, 1)", 
        "stride": "(2, 2)"
      }, 
      "inputs": [[41, 0, 0], [42, 0, 0]]
    }, 
    {
      "op": "null", 
      "name": "conv2_2_dwise_bn_gamma", 
      "attrs": {
        "eps": "0.0001", 
        "fix_gamma": "False", 
        "use_global_stats": "True"
      }, 
      "inputs": []
    }, 
    {
      "op": "null", 
      "name": "conv2_2_dwise_bn_beta", 
      "attrs": {
        "eps": "0.0001", 
        "fix_gamma": "False", 
        "use_global_stats": "True"
      }, 
      "inputs": []
    }, 
    {
      "op": "null", 
      "name": "conv2_2_dwise_bn_moving_mean", 
      "attrs": {
        "__init__": "[\"zero\", {}]", 
        "eps": "0.0001", 
        "fix_gamma": "False", 
        "use_global_stats": "True"
      }, 
      "inputs": []
    }, 
    {
      "op": "null", 
      "name": "conv2_2_dwise_bn_moving_var", 
      "attrs": {
        "__init__": "[\"one\", {}]", 
        "eps": "0.0001", 
        "fix_gamma": "False", 
        "use_global_stats": "True"
      }, 
      "inputs": []
    }, 
    {
      "op": "BatchNorm", 
      "name": "conv2_2_dwise_bn", 
      "attrs": {
        "eps": "0.0001", 
        "fix_gamma": "False", 
        "use_global_stats": "True"
      }, 
      "inputs": [[43, 0, 0], [44, 0, 0], [45, 0, 0], [46, 0, 1], [47, 0, 1]]
    }, 
    {
      "op": "Activation", 
      "name": "relu2_2_dwise", 
      "attrs": {"act_type": "relu"}, 
      "inputs": [[48, 0, 0]]
    }, 
    {
      "op": "null", 
      "name": "conv2_2_linear_weight", 
      "attrs": {
        "kernel": "(1, 1)", 
        "no_bias": "True", 
        "num_filter": "24", 
        "pad": "(0, 0)", 
        "stride": "(1, 1)"
      }, 
      "inputs": []
    }, 
    {
      "op": "Convolution", 
      "name": "conv2_2_linear", 
      "attrs": {
        "kernel": "(1, 1)", 
        "no_bias": "True", 
        "num_filter": "24", 
        "pad": "(0, 0)", 
        "stride": "(1, 1)"
      }, 
      "inputs": [[49, 0, 0], [50, 0, 0]]
    }, 
    {
      "op": "null", 
      "name": "conv2_2_linear_bn_gamma", 
      "attrs": {
        "eps": "0.0001", 
        "fix_gamma": "False", 
        "use_global_stats": "True"
      }, 
      "inputs": []
    }, 
    {
      "op": "null", 
      "name": "conv2_2_linear_bn_beta", 
      "attrs": {
        "eps": "0.0001", 
        "fix_gamma": "False", 
        "use_global_stats": "True"
      }, 
      "inputs": []
    }, 
    {
      "op": "null", 
      "name": "conv2_2_linear_bn_moving_mean", 
      "attrs": {
        "__init__": "[\"zero\", {}]", 
        "eps": "0.0001", 
        "fix_gamma": "False", 
        "use_global_stats": "True"
      }, 
      "inputs": []
    }, 
    {
      "op": "null", 
      "name": "conv2_2_linear_bn_moving_var", 
      "attrs": {
        "__init__": "[\"one\", {}]", 
        "eps": "0.0001", 
        "fix_gamma": "False", 
        "use_global_stats": "True"
      }, 
      "inputs": []
    }, 
    {
      "op": "BatchNorm", 
      "name": "conv2_2_linear_bn", 
      "attrs": {
        "eps": "0.0001", 
        "fix_gamma": "False", 
        "use_global_stats": "True"
      }, 
      "inputs": [[51, 0, 0], [52, 0, 0], [53, 0, 0], [54, 0, 1], [55, 0, 1]]
    }, 
    {
      "op": "null", 
      "name": "conv3_1_expand_weight", 
      "attrs": {
        "kernel": "(1, 1)", 
        "no_bias": "True", 
        "num_filter": "144", 
        "pad": "(0, 0)", 
        "stride": "(1, 1)"
      }, 
      "inputs": []
    }, 
    {
      "op": "Convolution", 
      "name": "conv3_1_expand", 
      "attrs": {
        "kernel": "(1, 1)", 
        "no_bias": "True", 
        "num_filter": "144", 
        "pad": "(0, 0)", 
        "stride": "(1, 1)"
      }, 
      "inputs": [[56, 0, 0], [57, 0, 0]]
    }, 
    {
      "op": "null", 
      "name": "conv3_1_expand_bn_gamma", 
      "attrs": {
        "eps": "0.0001", 
        "fix_gamma": "False", 
        "use_global_stats": "True"
      }, 
      "inputs": []
    }, 
    {
      "op": "null", 
      "name": "conv3_1_expand_bn_beta", 
      "attrs": {
        "eps": "0.0001", 
        "fix_gamma": "False", 
        "use_global_stats": "True"
      }, 
      "inputs": []
    }, 
    {
      "op": "null", 
      "name": "conv3_1_expand_bn_moving_mean", 
      "attrs": {
        "__init__": "[\"zero\", {}]", 
        "eps": "0.0001", 
        "fix_gamma": "False", 
        "use_global_stats": "True"
      }, 
      "inputs": []
    }, 
    {
      "op": "null", 
      "name": "conv3_1_expand_bn_moving_var", 
      "attrs": {
        "__init__": "[\"one\", {}]", 
        "eps": "0.0001", 
        "fix_gamma": "False", 
        "use_global_stats": "True"
      }, 
      "inputs": []
    }, 
    {
      "op": "BatchNorm", 
      "name": "conv3_1_expand_bn", 
      "attrs": {
        "eps": "0.0001", 
        "fix_gamma": "False", 
        "use_global_stats": "True"
      }, 
      "inputs": [[58, 0, 0], [59, 0, 0], [60, 0, 0], [61, 0, 1], [62, 0, 1]]
    }, 
    {
      "op": "Activation", 
      "name": "relu3_1_expand", 
      "attrs": {"act_type": "relu"}, 
      "inputs": [[63, 0, 0]]
    }, 
    {
      "op": "null", 
      "name": "conv3_1_dwise_weight", 
      "attrs": {
        "kernel": "(3, 3)", 
        "no_bias": "True", 
        "num_filter": "144", 
        "num_group": "144", 
        "pad": "(1, 1)", 
        "stride": "(1, 1)"
      }, 
      "inputs": []
    }, 
    {
      "op": "Convolution", 
      "name": "conv3_1_dwise", 
      "attrs": {
        "kernel": "(3, 3)", 
        "no_bias": "True", 
        "num_filter": "144", 
        "num_group": "144", 
        "pad": "(1, 1)", 
        "stride": "(1, 1)"
      }, 
      "inputs": [[64, 0, 0], [65, 0, 0]]
    }, 
    {
      "op": "null", 
      "name": "conv3_1_dwise_bn_gamma", 
      "attrs": {
        "eps": "0.0001", 
        "fix_gamma": "False", 
        "use_global_stats": "True"
      }, 
      "inputs": []
    }, 
    {
      "op": "null", 
      "name": "conv3_1_dwise_bn_beta", 
      "attrs": {
        "eps": "0.0001", 
        "fix_gamma": "False", 
        "use_global_stats": "True"
      }, 
      "inputs": []
    }, 
    {
      "op": "null", 
      "name": "conv3_1_dwise_bn_moving_mean", 
      "attrs": {
        "__init__": "[\"zero\", {}]", 
        "eps": "0.0001", 
        "fix_gamma": "False", 
        "use_global_stats": "True"
      }, 
      "inputs": []
    }, 
    {
      "op": "null", 
      "name": "conv3_1_dwise_bn_moving_var", 
      "attrs": {
        "__init__": "[\"one\", {}]", 
        "eps": "0.0001", 
        "fix_gamma": "False", 
        "use_global_stats": "True"
      }, 
      "inputs": []
    }, 
    {
      "op": "BatchNorm", 
      "name": "conv3_1_dwise_bn", 
      "attrs": {
        "eps": "0.0001", 
        "fix_gamma": "False", 
        "use_global_stats": "True"
      }, 
      "inputs": [[66, 0, 0], [67, 0, 0], [68, 0, 0], [69, 0, 1], [70, 0, 1]]
    }, 
    {
      "op": "Activation", 
      "name": "relu3_1_dwise", 
      "attrs": {"act_type": "relu"}, 
      "inputs": [[71, 0, 0]]
    }, 
    {
      "op": "null", 
      "name": "conv3_1_linear_weight", 
      "attrs": {
        "kernel": "(1, 1)", 
        "no_bias": "True", 
        "num_filter": "24", 
        "pad": "(0, 0)", 
        "stride": "(1, 1)"
      }, 
      "inputs": []
    }, 
    {
      "op": "Convolution", 
      "name": "conv3_1_linear", 
      "attrs": {
        "kernel": "(1, 1)", 
        "no_bias": "True", 
        "num_filter": "24", 
        "pad": "(0, 0)", 
        "stride": "(1, 1)"
      }, 
      "inputs": [[72, 0, 0], [73, 0, 0]]
    }, 
    {
      "op": "null", 
      "name": "conv3_1_linear_bn_gamma", 
      "attrs": {
        "eps": "0.0001", 
        "fix_gamma": "False", 
        "use_global_stats": "True"
      }, 
      "inputs": []
    }, 
    {
      "op": "null", 
      "name": "conv3_1_linear_bn_beta", 
      "attrs": {
        "eps": "0.0001", 
        "fix_gamma": "False", 
        "use_global_stats": "True"
      }, 
      "inputs": []
    }, 
    {
      "op": "null", 
      "name": "conv3_1_linear_bn_moving_mean", 
      "attrs": {
        "__init__": "[\"zero\", {}]", 
        "eps": "0.0001", 
        "fix_gamma": "False", 
        "use_global_stats": "True"
      }, 
      "inputs": []
    }, 
    {
      "op": "null", 
      "name": "conv3_1_linear_bn_moving_var", 
      "attrs": {
        "__init__": "[\"one\", {}]", 
        "eps": "0.0001", 
        "fix_gamma": "False", 
        "use_global_stats": "True"
      }, 
      "inputs": []
    }, 
    {
      "op": "BatchNorm", 
      "name": "conv3_1_linear_bn", 
      "attrs": {
        "eps": "0.0001", 
        "fix_gamma": "False", 
        "use_global_stats": "True"
      }, 
      "inputs": [[74, 0, 0], [75, 0, 0], [76, 0, 0], [77, 0, 1], [78, 0, 1]]
    }, 
    {
      "op": "broadcast_add", 
      "name": "block_3_1", 
      "inputs": [[56, 0, 0], [79, 0, 0]]
    }, 
    {
      "op": "null", 
      "name": "conv3_2_expand_weight", 
      "attrs": {
        "kernel": "(1, 1)", 
        "no_bias": "True", 
        "num_filter": "144", 
        "pad": "(0, 0)", 
        "stride": "(1, 1)"
      }, 
      "inputs": []
    }, 
    {
      "op": "Convolution", 
      "name": "conv3_2_expand", 
      "attrs": {
        "kernel": "(1, 1)", 
        "no_bias": "True", 
        "num_filter": "144", 
        "pad": "(0, 0)", 
        "stride": "(1, 1)"
      }, 
      "inputs": [[80, 0, 0], [81, 0, 0]]
    }, 
    {
      "op": "null", 
      "name": "conv3_2_expand_bn_gamma", 
      "attrs": {
        "eps": "0.0001", 
        "fix_gamma": "False", 
        "use_global_stats": "True"
      }, 
      "inputs": []
    }, 
    {
      "op": "null", 
      "name": "conv3_2_expand_bn_beta", 
      "attrs": {
        "eps": "0.0001", 
        "fix_gamma": "False", 
        "use_global_stats": "True"
      }, 
      "inputs": []
    }, 
    {
      "op": "null", 
      "name": "conv3_2_expand_bn_moving_mean", 
      "attrs": {
        "__init__": "[\"zero\", {}]", 
        "eps": "0.0001", 
        "fix_gamma": "False", 
        "use_global_stats": "True"
      }, 
      "inputs": []
    }, 
    {
      "op": "null", 
      "name": "conv3_2_expand_bn_moving_var", 
      "attrs": {
        "__init__": "[\"one\", {}]", 
        "eps": "0.0001", 
        "fix_gamma": "False", 
        "use_global_stats": "True"
      }, 
      "inputs": []
    }, 
    {
      "op": "BatchNorm", 
      "name": "conv3_2_expand_bn", 
      "attrs": {
        "eps": "0.0001", 
        "fix_gamma": "False", 
        "use_global_stats": "True"
      }, 
      "inputs": [[82, 0, 0], [83, 0, 0], [84, 0, 0], [85, 0, 1], [86, 0, 1]]
    }, 
    {
      "op": "Activation", 
      "name": "relu3_2_expand", 
      "attrs": {"act_type": "relu"}, 
      "inputs": [[87, 0, 0]]
    }, 
    {
      "op": "null", 
      "name": "conv3_2_dwise_weight", 
      "attrs": {
        "kernel": "(3, 3)", 
        "no_bias": "True", 
        "num_filter": "144", 
        "num_group": "144", 
        "pad": "(1, 1)", 
        "stride": "(2, 2)"
      }, 
      "inputs": []
    }, 
    {
      "op": "Convolution", 
      "name": "conv3_2_dwise", 
      "attrs": {
        "kernel": "(3, 3)", 
        "no_bias": "True", 
        "num_filter": "144", 
        "num_group": "144", 
        "pad": "(1, 1)", 
        "stride": "(2, 2)"
      }, 
      "inputs": [[88, 0, 0], [89, 0, 0]]
    }, 
    {
      "op": "null", 
      "name": "conv3_2_dwise_bn_gamma", 
      "attrs": {
        "eps": "0.0001", 
        "fix_gamma": "False", 
        "use_global_stats": "True"
      }, 
      "inputs": []
    }, 
    {
      "op": "null", 
      "name": "conv3_2_dwise_bn_beta", 
      "attrs": {
        "eps": "0.0001", 
        "fix_gamma": "False", 
        "use_global_stats": "True"
      }, 
      "inputs": []
    }, 
    {
      "op": "null", 
      "name": "conv3_2_dwise_bn_moving_mean", 
      "attrs": {
        "__init__": "[\"zero\", {}]", 
        "eps": "0.0001", 
        "fix_gamma": "False", 
        "use_global_stats": "True"
      }, 
      "inputs": []
    }, 
    {
      "op": "null", 
      "name": "conv3_2_dwise_bn_moving_var", 
      "attrs": {
        "__init__": "[\"one\", {}]", 
        "eps": "0.0001", 
        "fix_gamma": "False", 
        "use_global_stats": "True"
      }, 
      "inputs": []
    }, 
    {
      "op": "BatchNorm", 
      "name": "conv3_2_dwise_bn", 
      "attrs": {
        "eps": "0.0001", 
        "fix_gamma": "False", 
        "use_global_stats": "True"
      }, 
      "inputs": [[90, 0, 0], [91, 0, 0], [92, 0, 0], [93, 0, 1], [94, 0, 1]]
    }, 
    {
      "op": "Activation", 
      "name": "relu3_2_dwise", 
      "attrs": {"act_type": "relu"}, 
      "inputs": [[95, 0, 0]]
    }, 
    {
      "op": "null", 
      "name": "conv3_2_linear_weight", 
      "attrs": {
        "kernel": "(1, 1)", 
        "no_bias": "True", 
        "num_filter": "32", 
        "pad": "(0, 0)", 
        "stride": "(1, 1)"
      }, 
      "inputs": []
    }, 
    {
      "op": "Convolution", 
      "name": "conv3_2_linear", 
      "attrs": {
        "kernel": "(1, 1)", 
        "no_bias": "True", 
        "num_filter": "32", 
        "pad": "(0, 0)", 
        "stride": "(1, 1)"
      }, 
      "inputs": [[96, 0, 0], [97, 0, 0]]
    }, 
    {
      "op": "null", 
      "name": "conv3_2_linear_bn_gamma", 
      "attrs": {
        "eps": "0.0001", 
        "fix_gamma": "False", 
        "use_global_stats": "True"
      }, 
      "inputs": []
    }, 
    {
      "op": "null", 
      "name": "conv3_2_linear_bn_beta", 
      "attrs": {
        "eps": "0.0001", 
        "fix_gamma": "False", 
        "use_global_stats": "True"
      }, 
      "inputs": []
    }, 
    {
      "op": "null", 
      "name": "conv3_2_linear_bn_moving_mean", 
      "attrs": {
        "__init__": "[\"zero\", {}]", 
        "eps": "0.0001", 
        "fix_gamma": "False", 
        "use_global_stats": "True"
      }, 
      "inputs": []
    }, 
    {
      "op": "null", 
      "name": "conv3_2_linear_bn_moving_var", 
      "attrs": {
        "__init__": "[\"one\", {}]", 
        "eps": "0.0001", 
        "fix_gamma": "False", 
        "use_global_stats": "True"
      }, 
      "inputs": []
    }, 
    {
      "op": "BatchNorm", 
      "name": "conv3_2_linear_bn", 
      "attrs": {
        "eps": "0.0001", 
        "fix_gamma": "False", 
        "use_global_stats": "True"
      }, 
      "inputs": [[98, 0, 0], [99, 0, 0], [100, 0, 0], [101, 0, 1], [102, 0, 1]]
    }, 
    {
      "op": "null", 
      "name": "conv4_1_expand_weight", 
      "attrs": {
        "kernel": "(1, 1)", 
        "no_bias": "True", 
        "num_filter": "192", 
        "pad": "(0, 0)", 
        "stride": "(1, 1)"
      }, 
      "inputs": []
    }, 
    {
      "op": "Convolution", 
      "name": "conv4_1_expand", 
      "attrs": {
        "kernel": "(1, 1)", 
        "no_bias": "True", 
        "num_filter": "192", 
        "pad": "(0, 0)", 
        "stride": "(1, 1)"
      }, 
      "inputs": [[103, 0, 0], [104, 0, 0]]
    }, 
    {
      "op": "null", 
      "name": "conv4_1_expand_bn_gamma", 
      "attrs": {
        "eps": "0.0001", 
        "fix_gamma": "False", 
        "use_global_stats": "True"
      }, 
      "inputs": []
    }, 
    {
      "op": "null", 
      "name": "conv4_1_expand_bn_beta", 
      "attrs": {
        "eps": "0.0001", 
        "fix_gamma": "False", 
        "use_global_stats": "True"
      }, 
      "inputs": []
    }, 
    {
      "op": "null", 
      "name": "conv4_1_expand_bn_moving_mean", 
      "attrs": {
        "__init__": "[\"zero\", {}]", 
        "eps": "0.0001", 
        "fix_gamma": "False", 
        "use_global_stats": "True"
      }, 
      "inputs": []
    }, 
    {
      "op": "null", 
      "name": "conv4_1_expand_bn_moving_var", 
      "attrs": {
        "__init__": "[\"one\", {}]", 
        "eps": "0.0001", 
        "fix_gamma": "False", 
        "use_global_stats": "True"
      }, 
      "inputs": []
    }, 
    {
      "op": "BatchNorm", 
      "name": "conv4_1_expand_bn", 
      "attrs": {
        "eps": "0.0001", 
        "fix_gamma": "False", 
        "use_global_stats": "True"
      }, 
      "inputs": [[105, 0, 0], [106, 0, 0], [107, 0, 0], [108, 0, 1], [109, 0, 1]]
    }, 
    {
      "op": "Activation", 
      "name": "relu4_1_expand", 
      "attrs": {"act_type": "relu"}, 
      "inputs": [[110, 0, 0]]
    }, 
    {
      "op": "null", 
      "name": "conv4_1_dwise_weight", 
      "attrs": {
        "kernel": "(3, 3)", 
        "no_bias": "True", 
        "num_filter": "192", 
        "num_group": "192", 
        "pad": "(1, 1)", 
        "stride": "(1, 1)"
      }, 
      "inputs": []
    }, 
    {
      "op": "Convolution", 
      "name": "conv4_1_dwise", 
      "attrs": {
        "kernel": "(3, 3)", 
        "no_bias": "True", 
        "num_filter": "192", 
        "num_group": "192", 
        "pad": "(1, 1)", 
        "stride": "(1, 1)"
      }, 
      "inputs": [[111, 0, 0], [112, 0, 0]]
    }, 
    {
      "op": "null", 
      "name": "conv4_1_dwise_bn_gamma", 
      "attrs": {
        "eps": "0.0001", 
        "fix_gamma": "False", 
        "use_global_stats": "True"
      }, 
      "inputs": []
    }, 
    {
      "op": "null", 
      "name": "conv4_1_dwise_bn_beta", 
      "attrs": {
        "eps": "0.0001", 
        "fix_gamma": "False", 
        "use_global_stats": "True"
      }, 
      "inputs": []
    }, 
    {
      "op": "null", 
      "name": "conv4_1_dwise_bn_moving_mean", 
      "attrs": {
        "__init__": "[\"zero\", {}]", 
        "eps": "0.0001", 
        "fix_gamma": "False", 
        "use_global_stats": "True"
      }, 
      "inputs": []
    }, 
    {
      "op": "null", 
      "name": "conv4_1_dwise_bn_moving_var", 
      "attrs": {
        "__init__": "[\"one\", {}]", 
        "eps": "0.0001", 
        "fix_gamma": "False", 
        "use_global_stats": "True"
      }, 
      "inputs": []
    }, 
    {
      "op": "BatchNorm", 
      "name": "conv4_1_dwise_bn", 
      "attrs": {
        "eps": "0.0001", 
        "fix_gamma": "False", 
        "use_global_stats": "True"
      }, 
      "inputs": [[113, 0, 0], [114, 0, 0], [115, 0, 0], [116, 0, 1], [117, 0, 1]]
    }, 
    {
      "op": "Activation", 
      "name": "relu4_1_dwise", 
      "attrs": {"act_type": "relu"}, 
      "inputs": [[118, 0, 0]]
    }, 
    {
      "op": "null", 
      "name": "conv4_1_linear_weight", 
      "attrs": {
        "kernel": "(1, 1)", 
        "no_bias": "True", 
        "num_filter": "32", 
        "pad": "(0, 0)", 
        "stride": "(1, 1)"
      }, 
      "inputs": []
    }, 
    {
      "op": "Convolution", 
      "name": "conv4_1_linear", 
      "attrs": {
        "kernel": "(1, 1)", 
        "no_bias": "True", 
        "num_filter": "32", 
        "pad": "(0, 0)", 
        "stride": "(1, 1)"
      }, 
      "inputs": [[119, 0, 0], [120, 0, 0]]
    }, 
    {
      "op": "null", 
      "name": "conv4_1_linear_bn_gamma", 
      "attrs": {
        "eps": "0.0001", 
        "fix_gamma": "False", 
        "use_global_stats": "True"
      }, 
      "inputs": []
    }, 
    {
      "op": "null", 
      "name": "conv4_1_linear_bn_beta", 
      "attrs": {
        "eps": "0.0001", 
        "fix_gamma": "False", 
        "use_global_stats": "True"
      }, 
      "inputs": []
    }, 
    {
      "op": "null", 
      "name": "conv4_1_linear_bn_moving_mean", 
      "attrs": {
        "__init__": "[\"zero\", {}]", 
        "eps": "0.0001", 
        "fix_gamma": "False", 
        "use_global_stats": "True"
      }, 
      "inputs": []
    }, 
    {
      "op": "null", 
      "name": "conv4_1_linear_bn_moving_var", 
      "attrs": {
        "__init__": "[\"one\", {}]", 
        "eps": "0.0001", 
        "fix_gamma": "False", 
        "use_global_stats": "True"
      }, 
      "inputs": []
    }, 
    {
      "op": "BatchNorm", 
      "name": "conv4_1_linear_bn", 
      "attrs": {
        "eps": "0.0001", 
        "fix_gamma": "False", 
        "use_global_stats": "True"
      }, 
      "inputs": [[121, 0, 0], [122, 0, 0], [123, 0, 0], [124, 0, 1], [125, 0, 1]]
    }, 
    {
      "op": "broadcast_add", 
      "name": "block_4_1", 
      "inputs": [[103, 0, 0], [126, 0, 0]]
    }, 
    {
      "op": "null", 
      "name": "conv4_2_expand_weight", 
      "attrs": {
        "kernel": "(1, 1)", 
        "no_bias": "True", 
        "num_filter": "192", 
        "pad": "(0, 0)", 
        "stride": "(1, 1)"
      }, 
      "inputs": []
    }, 
    {
      "op": "Convolution", 
      "name": "conv4_2_expand", 
      "attrs": {
        "kernel": "(1, 1)", 
        "no_bias": "True", 
        "num_filter": "192", 
        "pad": "(0, 0)", 
        "stride": "(1, 1)"
      }, 
      "inputs": [[127, 0, 0], [128, 0, 0]]
    }, 
    {
      "op": "null", 
      "name": "conv4_2_expand_bn_gamma", 
      "attrs": {
        "eps": "0.0001", 
        "fix_gamma": "False", 
        "use_global_stats": "True"
      }, 
      "inputs": []
    }, 
    {
      "op": "null", 
      "name": "conv4_2_expand_bn_beta", 
      "attrs": {
        "eps": "0.0001", 
        "fix_gamma": "False", 
        "use_global_stats": "True"
      }, 
      "inputs": []
    }, 
    {
      "op": "null", 
      "name": "conv4_2_expand_bn_moving_mean", 
      "attrs": {
        "__init__": "[\"zero\", {}]", 
        "eps": "0.0001", 
        "fix_gamma": "False", 
        "use_global_stats": "True"
      }, 
      "inputs": []
    }, 
    {
      "op": "null", 
      "name": "conv4_2_expand_bn_moving_var", 
      "attrs": {
        "__init__": "[\"one\", {}]", 
        "eps": "0.0001", 
        "fix_gamma": "False", 
        "use_global_stats": "True"
      }, 
      "inputs": []
    }, 
    {
      "op": "BatchNorm", 
      "name": "conv4_2_expand_bn", 
      "attrs": {
        "eps": "0.0001", 
        "fix_gamma": "False", 
        "use_global_stats": "True"
      }, 
      "inputs": [[129, 0, 0], [130, 0, 0], [131, 0, 0], [132, 0, 1], [133, 0, 1]]
    }, 
    {
      "op": "Activation", 
      "name": "relu4_2_expand", 
      "attrs": {"act_type": "relu"}, 
      "inputs": [[134, 0, 0]]
    }, 
    {
      "op": "null", 
      "name": "conv4_2_dwise_weight", 
      "attrs": {
        "kernel": "(3, 3)", 
        "no_bias": "True", 
        "num_filter": "192", 
        "num_group": "192", 
        "pad": "(1, 1)", 
        "stride": "(1, 1)"
      }, 
      "inputs": []
    }, 
    {
      "op": "Convolution", 
      "name": "conv4_2_dwise", 
      "attrs": {
        "kernel": "(3, 3)", 
        "no_bias": "True", 
        "num_filter": "192", 
        "num_group": "192", 
        "pad": "(1, 1)", 
        "stride": "(1, 1)"
      }, 
      "inputs": [[135, 0, 0], [136, 0, 0]]
    }, 
    {
      "op": "null", 
      "name": "conv4_2_dwise_bn_gamma", 
      "attrs": {
        "eps": "0.0001", 
        "fix_gamma": "False", 
        "use_global_stats": "True"
      }, 
      "inputs": []
    }, 
    {
      "op": "null", 
      "name": "conv4_2_dwise_bn_beta", 
      "attrs": {
        "eps": "0.0001", 
        "fix_gamma": "False", 
        "use_global_stats": "True"
      }, 
      "inputs": []
    }, 
    {
      "op": "null", 
      "name": "conv4_2_dwise_bn_moving_mean", 
      "attrs": {
        "__init__": "[\"zero\", {}]", 
        "eps": "0.0001", 
        "fix_gamma": "False", 
        "use_global_stats": "True"
      }, 
      "inputs": []
    }, 
    {
      "op": "null", 
      "name": "conv4_2_dwise_bn_moving_var", 
      "attrs": {
        "__init__": "[\"one\", {}]", 
        "eps": "0.0001", 
        "fix_gamma": "False", 
        "use_global_stats": "True"
      }, 
      "inputs": []
    }, 
    {
      "op": "BatchNorm", 
      "name": "conv4_2_dwise_bn", 
      "attrs": {
        "eps": "0.0001", 
        "fix_gamma": "False", 
        "use_global_stats": "True"
      }, 
      "inputs": [[137, 0, 0], [138, 0, 0], [139, 0, 0], [140, 0, 1], [141, 0, 1]]
    }, 
    {
      "op": "Activation", 
      "name": "relu4_2_dwise", 
      "attrs": {"act_type": "relu"}, 
      "inputs": [[142, 0, 0]]
    }, 
    {
      "op": "null", 
      "name": "conv4_2_linear_weight", 
      "attrs": {
        "kernel": "(1, 1)", 
        "no_bias": "True", 
        "num_filter": "32", 
        "pad": "(0, 0)", 
        "stride": "(1, 1)"
      }, 
      "inputs": []
    }, 
    {
      "op": "Convolution", 
      "name": "conv4_2_linear", 
      "attrs": {
        "kernel": "(1, 1)", 
        "no_bias": "True", 
        "num_filter": "32", 
        "pad": "(0, 0)", 
        "stride": "(1, 1)"
      }, 
      "inputs": [[143, 0, 0], [144, 0, 0]]
    }, 
    {
      "op": "null", 
      "name": "conv4_2_linear_bn_gamma", 
      "attrs": {
        "eps": "0.0001", 
        "fix_gamma": "False", 
        "use_global_stats": "True"
      }, 
      "inputs": []
    }, 
    {
      "op": "null", 
      "name": "conv4_2_linear_bn_beta", 
      "attrs": {
        "eps": "0.0001", 
        "fix_gamma": "False", 
        "use_global_stats": "True"
      }, 
      "inputs": []
    }, 
    {
      "op": "null", 
      "name": "conv4_2_linear_bn_moving_mean", 
      "attrs": {
        "__init__": "[\"zero\", {}]", 
        "eps": "0.0001", 
        "fix_gamma": "False", 
        "use_global_stats": "True"
      }, 
      "inputs": []
    }, 
    {
      "op": "null", 
      "name": "conv4_2_linear_bn_moving_var", 
      "attrs": {
        "__init__": "[\"one\", {}]", 
        "eps": "0.0001", 
        "fix_gamma": "False", 
        "use_global_stats": "True"
      }, 
      "inputs": []
    }, 
    {
      "op": "BatchNorm", 
      "name": "conv4_2_linear_bn", 
      "attrs": {
        "eps": "0.0001", 
        "fix_gamma": "False", 
        "use_global_stats": "True"
      }, 
      "inputs": [[145, 0, 0], [146, 0, 0], [147, 0, 0], [148, 0, 1], [149, 0, 1]]
    }, 
    {
      "op": "broadcast_add", 
      "name": "block_4_2", 
      "inputs": [[127, 0, 0], [150, 0, 0]]
    }, 
    {
      "op": "null", 
      "name": "conv4_3_expand_weight", 
      "attrs": {
        "kernel": "(1, 1)", 
        "no_bias": "True", 
        "num_filter": "192", 
        "pad": "(0, 0)", 
        "stride": "(1, 1)"
      }, 
      "inputs": []
    }, 
    {
      "op": "Convolution", 
      "name": "conv4_3_expand", 
      "attrs": {
        "kernel": "(1, 1)", 
        "no_bias": "True", 
        "num_filter": "192", 
        "pad": "(0, 0)", 
        "stride": "(1, 1)"
      }, 
      "inputs": [[151, 0, 0], [152, 0, 0]]
    }, 
    {
      "op": "null", 
      "name": "conv4_3_expand_bn_gamma", 
      "attrs": {
        "eps": "0.0001", 
        "fix_gamma": "False", 
        "use_global_stats": "True"
      }, 
      "inputs": []
    }, 
    {
      "op": "null", 
      "name": "conv4_3_expand_bn_beta", 
      "attrs": {
        "eps": "0.0001", 
        "fix_gamma": "False", 
        "use_global_stats": "True"
      }, 
      "inputs": []
    }, 
    {
      "op": "null", 
      "name": "conv4_3_expand_bn_moving_mean", 
      "attrs": {
        "__init__": "[\"zero\", {}]", 
        "eps": "0.0001", 
        "fix_gamma": "False", 
        "use_global_stats": "True"
      }, 
      "inputs": []
    }, 
    {
      "op": "null", 
      "name": "conv4_3_expand_bn_moving_var", 
      "attrs": {
        "__init__": "[\"one\", {}]", 
        "eps": "0.0001", 
        "fix_gamma": "False", 
        "use_global_stats": "True"
      }, 
      "inputs": []
    }, 
    {
      "op": "BatchNorm", 
      "name": "conv4_3_expand_bn", 
      "attrs": {
        "eps": "0.0001", 
        "fix_gamma": "False", 
        "use_global_stats": "True"
      }, 
      "inputs": [[153, 0, 0], [154, 0, 0], [155, 0, 0], [156, 0, 1], [157, 0, 1]]
    }, 
    {
      "op": "Activation", 
      "name": "relu4_3_expand", 
      "attrs": {"act_type": "relu"}, 
      "inputs": [[158, 0, 0]]
    }, 
    {
      "op": "null", 
      "name": "conv4_3_dwise_weight", 
      "attrs": {
        "kernel": "(3, 3)", 
        "no_bias": "True", 
        "num_filter": "192", 
        "num_group": "192", 
        "pad": "(1, 1)", 
        "stride": "(1, 1)"
      }, 
      "inputs": []
    }, 
    {
      "op": "Convolution", 
      "name": "conv4_3_dwise", 
      "attrs": {
        "kernel": "(3, 3)", 
        "no_bias": "True", 
        "num_filter": "192", 
        "num_group": "192", 
        "pad": "(1, 1)", 
        "stride": "(1, 1)"
      }, 
      "inputs": [[159, 0, 0], [160, 0, 0]]
    }, 
    {
      "op": "null", 
      "name": "conv4_3_dwise_bn_gamma", 
      "attrs": {
        "eps": "0.0001", 
        "fix_gamma": "False", 
        "use_global_stats": "True"
      }, 
      "inputs": []
    }, 
    {
      "op": "null", 
      "name": "conv4_3_dwise_bn_beta", 
      "attrs": {
        "eps": "0.0001", 
        "fix_gamma": "False", 
        "use_global_stats": "True"
      }, 
      "inputs": []
    }, 
    {
      "op": "null", 
      "name": "conv4_3_dwise_bn_moving_mean", 
      "attrs": {
        "__init__": "[\"zero\", {}]", 
        "eps": "0.0001", 
        "fix_gamma": "False", 
        "use_global_stats": "True"
      }, 
      "inputs": []
    }, 
    {
      "op": "null", 
      "name": "conv4_3_dwise_bn_moving_var", 
      "attrs": {
        "__init__": "[\"one\", {}]", 
        "eps": "0.0001", 
        "fix_gamma": "False", 
        "use_global_stats": "True"
      }, 
      "inputs": []
    }, 
    {
      "op": "BatchNorm", 
      "name": "conv4_3_dwise_bn", 
      "attrs": {
        "eps": "0.0001", 
        "fix_gamma": "False", 
        "use_global_stats": "True"
      }, 
      "inputs": [[161, 0, 0], [162, 0, 0], [163, 0, 0], [164, 0, 1], [165, 0, 1]]
    }, 
    {
      "op": "Activation", 
      "name": "relu4_3_dwise", 
      "attrs": {"act_type": "relu"}, 
      "inputs": [[166, 0, 0]]
    }, 
    {
      "op": "null", 
      "name": "conv4_3_linear_weight", 
      "attrs": {
        "kernel": "(1, 1)", 
        "no_bias": "True", 
        "num_filter": "64", 
        "pad": "(0, 0)", 
        "stride": "(1, 1)"
      }, 
      "inputs": []
    }, 
    {
      "op": "Convolution", 
      "name": "conv4_3_linear", 
      "attrs": {
        "kernel": "(1, 1)", 
        "no_bias": "True", 
        "num_filter": "64", 
        "pad": "(0, 0)", 
        "stride": "(1, 1)"
      }, 
      "inputs": [[167, 0, 0], [168, 0, 0]]
    }, 
    {
      "op": "null", 
      "name": "conv4_3_linear_bn_gamma", 
      "attrs": {
        "eps": "0.0001", 
        "fix_gamma": "False", 
        "use_global_stats": "True"
      }, 
      "inputs": []
    }, 
    {
      "op": "null", 
      "name": "conv4_3_linear_bn_beta", 
      "attrs": {
        "eps": "0.0001", 
        "fix_gamma": "False", 
        "use_global_stats": "True"
      }, 
      "inputs": []
    }, 
    {
      "op": "null", 
      "name": "conv4_3_linear_bn_moving_mean", 
      "attrs": {
        "__init__": "[\"zero\", {}]", 
        "eps": "0.0001", 
        "fix_gamma": "False", 
        "use_global_stats": "True"
      }, 
      "inputs": []
    }, 
    {
      "op": "null", 
      "name": "conv4_3_linear_bn_moving_var", 
      "attrs": {
        "__init__": "[\"one\", {}]", 
        "eps": "0.0001", 
        "fix_gamma": "False", 
        "use_global_stats": "True"
      }, 
      "inputs": []
    }, 
    {
      "op": "BatchNorm", 
      "name": "conv4_3_linear_bn", 
      "attrs": {
        "eps": "0.0001", 
        "fix_gamma": "False", 
        "use_global_stats": "True"
      }, 
      "inputs": [[169, 0, 0], [170, 0, 0], [171, 0, 0], [172, 0, 1], [173, 0, 1]]
    }, 
    {
      "op": "null", 
      "name": "conv4_4_expand_weight", 
      "attrs": {
        "kernel": "(1, 1)", 
        "no_bias": "True", 
        "num_filter": "384", 
        "pad": "(0, 0)", 
        "stride": "(1, 1)"
      }, 
      "inputs": []
    }, 
    {
      "op": "Convolution", 
      "name": "conv4_4_expand", 
      "attrs": {
        "kernel": "(1, 1)", 
        "no_bias": "True", 
        "num_filter": "384", 
        "pad": "(0, 0)", 
        "stride": "(1, 1)"
      }, 
      "inputs": [[174, 0, 0], [175, 0, 0]]
    }, 
    {
      "op": "null", 
      "name": "conv4_4_expand_bn_gamma", 
      "attrs": {
        "eps": "0.0001", 
        "fix_gamma": "False", 
        "use_global_stats": "True"
      }, 
      "inputs": []
    }, 
    {
      "op": "null", 
      "name": "conv4_4_expand_bn_beta", 
      "attrs": {
        "eps": "0.0001", 
        "fix_gamma": "False", 
        "use_global_stats": "True"
      }, 
      "inputs": []
    }, 
    {
      "op": "null", 
      "name": "conv4_4_expand_bn_moving_mean", 
      "attrs": {
        "__init__": "[\"zero\", {}]", 
        "eps": "0.0001", 
        "fix_gamma": "False", 
        "use_global_stats": "True"
      }, 
      "inputs": []
    }, 
    {
      "op": "null", 
      "name": "conv4_4_expand_bn_moving_var", 
      "attrs": {
        "__init__": "[\"one\", {}]", 
        "eps": "0.0001", 
        "fix_gamma": "False", 
        "use_global_stats": "True"
      }, 
      "inputs": []
    }, 
    {
      "op": "BatchNorm", 
      "name": "conv4_4_expand_bn", 
      "attrs": {
        "eps": "0.0001", 
        "fix_gamma": "False", 
        "use_global_stats": "True"
      }, 
      "inputs": [[176, 0, 0], [177, 0, 0], [178, 0, 0], [179, 0, 1], [180, 0, 1]]
    }, 
    {
      "op": "Activation", 
      "name": "relu4_4_expand", 
      "attrs": {"act_type": "relu"}, 
      "inputs": [[181, 0, 0]]
    }, 
    {
      "op": "null", 
      "name": "conv4_4_dwise_weight", 
      "attrs": {
        "kernel": "(3, 3)", 
        "no_bias": "True", 
        "num_filter": "384", 
        "num_group": "384", 
        "pad": "(1, 1)", 
        "stride": "(1, 1)"
      }, 
      "inputs": []
    }, 
    {
      "op": "Convolution", 
      "name": "conv4_4_dwise", 
      "attrs": {
        "kernel": "(3, 3)", 
        "no_bias": "True", 
        "num_filter": "384", 
        "num_group": "384", 
        "pad": "(1, 1)", 
        "stride": "(1, 1)"
      }, 
      "inputs": [[182, 0, 0], [183, 0, 0]]
    }, 
    {
      "op": "null", 
      "name": "conv4_4_dwise_bn_gamma", 
      "attrs": {
        "eps": "0.0001", 
        "fix_gamma": "False", 
        "use_global_stats": "True"
      }, 
      "inputs": []
    }, 
    {
      "op": "null", 
      "name": "conv4_4_dwise_bn_beta", 
      "attrs": {
        "eps": "0.0001", 
        "fix_gamma": "False", 
        "use_global_stats": "True"
      }, 
      "inputs": []
    }, 
    {
      "op": "null", 
      "name": "conv4_4_dwise_bn_moving_mean", 
      "attrs": {
        "__init__": "[\"zero\", {}]", 
        "eps": "0.0001", 
        "fix_gamma": "False", 
        "use_global_stats": "True"
      }, 
      "inputs": []
    }, 
    {
      "op": "null", 
      "name": "conv4_4_dwise_bn_moving_var", 
      "attrs": {
        "__init__": "[\"one\", {}]", 
        "eps": "0.0001", 
        "fix_gamma": "False", 
        "use_global_stats": "True"
      }, 
      "inputs": []
    }, 
    {
      "op": "BatchNorm", 
      "name": "conv4_4_dwise_bn", 
      "attrs": {
        "eps": "0.0001", 
        "fix_gamma": "False", 
        "use_global_stats": "True"
      }, 
      "inputs": [[184, 0, 0], [185, 0, 0], [186, 0, 0], [187, 0, 1], [188, 0, 1]]
    }, 
    {
      "op": "Activation", 
      "name": "relu4_4_dwise", 
      "attrs": {"act_type": "relu"}, 
      "inputs": [[189, 0, 0]]
    }, 
    {
      "op": "null", 
      "name": "conv4_4_linear_weight", 
      "attrs": {
        "kernel": "(1, 1)", 
        "no_bias": "True", 
        "num_filter": "64", 
        "pad": "(0, 0)", 
        "stride": "(1, 1)"
      }, 
      "inputs": []
    }, 
    {
      "op": "Convolution", 
      "name": "conv4_4_linear", 
      "attrs": {
        "kernel": "(1, 1)", 
        "no_bias": "True", 
        "num_filter": "64", 
        "pad": "(0, 0)", 
        "stride": "(1, 1)"
      }, 
      "inputs": [[190, 0, 0], [191, 0, 0]]
    }, 
    {
      "op": "null", 
      "name": "conv4_4_linear_bn_gamma", 
      "attrs": {
        "eps": "0.0001", 
        "fix_gamma": "False", 
        "use_global_stats": "True"
      }, 
      "inputs": []
    }, 
    {
      "op": "null", 
      "name": "conv4_4_linear_bn_beta", 
      "attrs": {
        "eps": "0.0001", 
        "fix_gamma": "False", 
        "use_global_stats": "True"
      }, 
      "inputs": []
    }, 
    {
      "op": "null", 
      "name": "conv4_4_linear_bn_moving_mean", 
      "attrs": {
        "__init__": "[\"zero\", {}]", 
        "eps": "0.0001", 
        "fix_gamma": "False", 
        "use_global_stats": "True"
      }, 
      "inputs": []
    }, 
    {
      "op": "null", 
      "name": "conv4_4_linear_bn_moving_var", 
      "attrs": {
        "__init__": "[\"one\", {}]", 
        "eps": "0.0001", 
        "fix_gamma": "False", 
        "use_global_stats": "True"
      }, 
      "inputs": []
    }, 
    {
      "op": "BatchNorm", 
      "name": "conv4_4_linear_bn", 
      "attrs": {
        "eps": "0.0001", 
        "fix_gamma": "False", 
        "use_global_stats": "True"
      }, 
      "inputs": [[192, 0, 0], [193, 0, 0], [194, 0, 0], [195, 0, 1], [196, 0, 1]]
    }, 
    {
      "op": "broadcast_add", 
      "name": "block_4_4", 
      "inputs": [[174, 0, 0], [197, 0, 0]]
    }, 
    {
      "op": "null", 
      "name": "conv4_5_expand_weight", 
      "attrs": {
        "kernel": "(1, 1)", 
        "no_bias": "True", 
        "num_filter": "384", 
        "pad": "(0, 0)", 
        "stride": "(1, 1)"
      }, 
      "inputs": []
    }, 
    {
      "op": "Convolution", 
      "name": "conv4_5_expand", 
      "attrs": {
        "kernel": "(1, 1)", 
        "no_bias": "True", 
        "num_filter": "384", 
        "pad": "(0, 0)", 
        "stride": "(1, 1)"
      }, 
      "inputs": [[198, 0, 0], [199, 0, 0]]
    }, 
    {
      "op": "null", 
      "name": "conv4_5_expand_bn_gamma", 
      "attrs": {
        "eps": "0.0001", 
        "fix_gamma": "False", 
        "use_global_stats": "True"
      }, 
      "inputs": []
    }, 
    {
      "op": "null", 
      "name": "conv4_5_expand_bn_beta", 
      "attrs": {
        "eps": "0.0001", 
        "fix_gamma": "False", 
        "use_global_stats": "True"
      }, 
      "inputs": []
    }, 
    {
      "op": "null", 
      "name": "conv4_5_expand_bn_moving_mean", 
      "attrs": {
        "__init__": "[\"zero\", {}]", 
        "eps": "0.0001", 
        "fix_gamma": "False", 
        "use_global_stats": "True"
      }, 
      "inputs": []
    }, 
    {
      "op": "null", 
      "name": "conv4_5_expand_bn_moving_var", 
      "attrs": {
        "__init__": "[\"one\", {}]", 
        "eps": "0.0001", 
        "fix_gamma": "False", 
        "use_global_stats": "True"
      }, 
      "inputs": []
    }, 
    {
      "op": "BatchNorm", 
      "name": "conv4_5_expand_bn", 
      "attrs": {
        "eps": "0.0001", 
        "fix_gamma": "False", 
        "use_global_stats": "True"
      }, 
      "inputs": [[200, 0, 0], [201, 0, 0], [202, 0, 0], [203, 0, 1], [204, 0, 1]]
    }, 
    {
      "op": "Activation", 
      "name": "relu4_5_expand", 
      "attrs": {"act_type": "relu"}, 
      "inputs": [[205, 0, 0]]
    }, 
    {
      "op": "null", 
      "name": "conv4_5_dwise_weight", 
      "attrs": {
        "kernel": "(3, 3)", 
        "no_bias": "True", 
        "num_filter": "384", 
        "num_group": "384", 
        "pad": "(1, 1)", 
        "stride": "(1, 1)"
      }, 
      "inputs": []
    }, 
    {
      "op": "Convolution", 
      "name": "conv4_5_dwise", 
      "attrs": {
        "kernel": "(3, 3)", 
        "no_bias": "True", 
        "num_filter": "384", 
        "num_group": "384", 
        "pad": "(1, 1)", 
        "stride": "(1, 1)"
      }, 
      "inputs": [[206, 0, 0], [207, 0, 0]]
    }, 
    {
      "op": "null", 
      "name": "conv4_5_dwise_bn_gamma", 
      "attrs": {
        "eps": "0.0001", 
        "fix_gamma": "False", 
        "use_global_stats": "True"
      }, 
      "inputs": []
    }, 
    {
      "op": "null", 
      "name": "conv4_5_dwise_bn_beta", 
      "attrs": {
        "eps": "0.0001", 
        "fix_gamma": "False", 
        "use_global_stats": "True"
      }, 
      "inputs": []
    }, 
    {
      "op": "null", 
      "name": "conv4_5_dwise_bn_moving_mean", 
      "attrs": {
        "__init__": "[\"zero\", {}]", 
        "eps": "0.0001", 
        "fix_gamma": "False", 
        "use_global_stats": "True"
      }, 
      "inputs": []
    }, 
    {
      "op": "null", 
      "name": "conv4_5_dwise_bn_moving_var", 
      "attrs": {
        "__init__": "[\"one\", {}]", 
        "eps": "0.0001", 
        "fix_gamma": "False", 
        "use_global_stats": "True"
      }, 
      "inputs": []
    }, 
    {
      "op": "BatchNorm", 
      "name": "conv4_5_dwise_bn", 
      "attrs": {
        "eps": "0.0001", 
        "fix_gamma": "False", 
        "use_global_stats": "True"
      }, 
      "inputs": [[208, 0, 0], [209, 0, 0], [210, 0, 0], [211, 0, 1], [212, 0, 1]]
    }, 
    {
      "op": "Activation", 
      "name": "relu4_5_dwise", 
      "attrs": {"act_type": "relu"}, 
      "inputs": [[213, 0, 0]]
    }, 
    {
      "op": "null", 
      "name": "conv4_5_linear_weight", 
      "attrs": {
        "kernel": "(1, 1)", 
        "no_bias": "True", 
        "num_filter": "64", 
        "pad": "(0, 0)", 
        "stride": "(1, 1)"
      }, 
      "inputs": []
    }, 
    {
      "op": "Convolution", 
      "name": "conv4_5_linear", 
      "attrs": {
        "kernel": "(1, 1)", 
        "no_bias": "True", 
        "num_filter": "64", 
        "pad": "(0, 0)", 
        "stride": "(1, 1)"
      }, 
      "inputs": [[214, 0, 0], [215, 0, 0]]
    }, 
    {
      "op": "null", 
      "name": "conv4_5_linear_bn_gamma", 
      "attrs": {
        "eps": "0.0001", 
        "fix_gamma": "False", 
        "use_global_stats": "True"
      }, 
      "inputs": []
    }, 
    {
      "op": "null", 
      "name": "conv4_5_linear_bn_beta", 
      "attrs": {
        "eps": "0.0001", 
        "fix_gamma": "False", 
        "use_global_stats": "True"
      }, 
      "inputs": []
    }, 
    {
      "op": "null", 
      "name": "conv4_5_linear_bn_moving_mean", 
      "attrs": {
        "__init__": "[\"zero\", {}]", 
        "eps": "0.0001", 
        "fix_gamma": "False", 
        "use_global_stats": "True"
      }, 
      "inputs": []
    }, 
    {
      "op": "null", 
      "name": "conv4_5_linear_bn_moving_var", 
      "attrs": {
        "__init__": "[\"one\", {}]", 
        "eps": "0.0001", 
        "fix_gamma": "False", 
        "use_global_stats": "True"
      }, 
      "inputs": []
    }, 
    {
      "op": "BatchNorm", 
      "name": "conv4_5_linear_bn", 
      "attrs": {
        "eps": "0.0001", 
        "fix_gamma": "False", 
        "use_global_stats": "True"
      }, 
      "inputs": [[216, 0, 0], [217, 0, 0], [218, 0, 0], [219, 0, 1], [220, 0, 1]]
    }, 
    {
      "op": "broadcast_add", 
      "name": "block_4_5", 
      "inputs": [[198, 0, 0], [221, 0, 0]]
    }, 
    {
      "op": "null", 
      "name": "conv4_6_expand_weight", 
      "attrs": {
        "kernel": "(1, 1)", 
        "no_bias": "True", 
        "num_filter": "384", 
        "pad": "(0, 0)", 
        "stride": "(1, 1)"
      }, 
      "inputs": []
    }, 
    {
      "op": "Convolution", 
      "name": "conv4_6_expand", 
      "attrs": {
        "kernel": "(1, 1)", 
        "no_bias": "True", 
        "num_filter": "384", 
        "pad": "(0, 0)", 
        "stride": "(1, 1)"
      }, 
      "inputs": [[222, 0, 0], [223, 0, 0]]
    }, 
    {
      "op": "null", 
      "name": "conv4_6_expand_bn_gamma", 
      "attrs": {
        "eps": "0.0001", 
        "fix_gamma": "False", 
        "use_global_stats": "True"
      }, 
      "inputs": []
    }, 
    {
      "op": "null", 
      "name": "conv4_6_expand_bn_beta", 
      "attrs": {
        "eps": "0.0001", 
        "fix_gamma": "False", 
        "use_global_stats": "True"
      }, 
      "inputs": []
    }, 
    {
      "op": "null", 
      "name": "conv4_6_expand_bn_moving_mean", 
      "attrs": {
        "__init__": "[\"zero\", {}]", 
        "eps": "0.0001", 
        "fix_gamma": "False", 
        "use_global_stats": "True"
      }, 
      "inputs": []
    }, 
    {
      "op": "null", 
      "name": "conv4_6_expand_bn_moving_var", 
      "attrs": {
        "__init__": "[\"one\", {}]", 
        "eps": "0.0001", 
        "fix_gamma": "False", 
        "use_global_stats": "True"
      }, 
      "inputs": []
    }, 
    {
      "op": "BatchNorm", 
      "name": "conv4_6_expand_bn", 
      "attrs": {
        "eps": "0.0001", 
        "fix_gamma": "False", 
        "use_global_stats": "True"
      }, 
      "inputs": [[224, 0, 0], [225, 0, 0], [226, 0, 0], [227, 0, 1], [228, 0, 1]]
    }, 
    {
      "op": "Activation", 
      "name": "relu4_6_expand", 
      "attrs": {"act_type": "relu"}, 
      "inputs": [[229, 0, 0]]
    }, 
    {
      "op": "null", 
      "name": "conv4_6_dwise_weight", 
      "attrs": {
        "kernel": "(3, 3)", 
        "no_bias": "True", 
        "num_filter": "384", 
        "num_group": "384", 
        "pad": "(1, 1)", 
        "stride": "(1, 1)"
      }, 
      "inputs": []
    }, 
    {
      "op": "Convolution", 
      "name": "conv4_6_dwise", 
      "attrs": {
        "kernel": "(3, 3)", 
        "no_bias": "True", 
        "num_filter": "384", 
        "num_group": "384", 
        "pad": "(1, 1)", 
        "stride": "(1, 1)"
      }, 
      "inputs": [[230, 0, 0], [231, 0, 0]]
    }, 
    {
      "op": "null", 
      "name": "conv4_6_dwise_bn_gamma", 
      "attrs": {
        "eps": "0.0001", 
        "fix_gamma": "False", 
        "use_global_stats": "True"
      }, 
      "inputs": []
    }, 
    {
      "op": "null", 
      "name": "conv4_6_dwise_bn_beta", 
      "attrs": {
        "eps": "0.0001", 
        "fix_gamma": "False", 
        "use_global_stats": "True"
      }, 
      "inputs": []
    }, 
    {
      "op": "null", 
      "name": "conv4_6_dwise_bn_moving_mean", 
      "attrs": {
        "__init__": "[\"zero\", {}]", 
        "eps": "0.0001", 
        "fix_gamma": "False", 
        "use_global_stats": "True"
      }, 
      "inputs": []
    }, 
    {
      "op": "null", 
      "name": "conv4_6_dwise_bn_moving_var", 
      "attrs": {
        "__init__": "[\"one\", {}]", 
        "eps": "0.0001", 
        "fix_gamma": "False", 
        "use_global_stats": "True"
      }, 
      "inputs": []
    }, 
    {
      "op": "BatchNorm", 
      "name": "conv4_6_dwise_bn", 
      "attrs": {
        "eps": "0.0001", 
        "fix_gamma": "False", 
        "use_global_stats": "True"
      }, 
      "inputs": [[232, 0, 0], [233, 0, 0], [234, 0, 0], [235, 0, 1], [236, 0, 1]]
    }, 
    {
      "op": "Activation", 
      "name": "relu4_6_dwise", 
      "attrs": {"act_type": "relu"}, 
      "inputs": [[237, 0, 0]]
    }, 
    {
      "op": "null", 
      "name": "conv4_6_linear_weight", 
      "attrs": {
        "kernel": "(1, 1)", 
        "no_bias": "True", 
        "num_filter": "64", 
        "pad": "(0, 0)", 
        "stride": "(1, 1)"
      }, 
      "inputs": []
    }, 
    {
      "op": "Convolution", 
      "name": "conv4_6_linear", 
      "attrs": {
        "kernel": "(1, 1)", 
        "no_bias": "True", 
        "num_filter": "64", 
        "pad": "(0, 0)", 
        "stride": "(1, 1)"
      }, 
      "inputs": [[238, 0, 0], [239, 0, 0]]
    }, 
    {
      "op": "null", 
      "name": "conv4_6_linear_bn_gamma", 
      "attrs": {
        "eps": "0.0001", 
        "fix_gamma": "False", 
        "use_global_stats": "True"
      }, 
      "inputs": []
    }, 
    {
      "op": "null", 
      "name": "conv4_6_linear_bn_beta", 
      "attrs": {
        "eps": "0.0001", 
        "fix_gamma": "False", 
        "use_global_stats": "True"
      }, 
      "inputs": []
    }, 
    {
      "op": "null", 
      "name": "conv4_6_linear_bn_moving_mean", 
      "attrs": {
        "__init__": "[\"zero\", {}]", 
        "eps": "0.0001", 
        "fix_gamma": "False", 
        "use_global_stats": "True"
      }, 
      "inputs": []
    }, 
    {
      "op": "null", 
      "name": "conv4_6_linear_bn_moving_var", 
      "attrs": {
        "__init__": "[\"one\", {}]", 
        "eps": "0.0001", 
        "fix_gamma": "False", 
        "use_global_stats": "True"
      }, 
      "inputs": []
    }, 
    {
      "op": "BatchNorm", 
      "name": "conv4_6_linear_bn", 
      "attrs": {
        "eps": "0.0001", 
        "fix_gamma": "False", 
        "use_global_stats": "True"
      }, 
      "inputs": [[240, 0, 0], [241, 0, 0], [242, 0, 0], [243, 0, 1], [244, 0, 1]]
    }, 
    {
      "op": "broadcast_add", 
      "name": "block_4_6", 
      "inputs": [[222, 0, 0], [245, 0, 0]]
    }, 
    {
      "op": "null", 
      "name": "conv4_7_expand_weight", 
      "attrs": {
        "kernel": "(1, 1)", 
        "no_bias": "True", 
        "num_filter": "384", 
        "pad": "(0, 0)", 
        "stride": "(1, 1)"
      }, 
      "inputs": []
    }, 
    {
      "op": "Convolution", 
      "name": "conv4_7_expand", 
      "attrs": {
        "kernel": "(1, 1)", 
        "no_bias": "True", 
        "num_filter": "384", 
        "pad": "(0, 0)", 
        "stride": "(1, 1)"
      }, 
      "inputs": [[246, 0, 0], [247, 0, 0]]
    }, 
    {
      "op": "null", 
      "name": "conv4_7_expand_bn_gamma", 
      "attrs": {
        "eps": "0.0001", 
        "fix_gamma": "False", 
        "use_global_stats": "True"
      }, 
      "inputs": []
    }, 
    {
      "op": "null", 
      "name": "conv4_7_expand_bn_beta", 
      "attrs": {
        "eps": "0.0001", 
        "fix_gamma": "False", 
        "use_global_stats": "True"
      }, 
      "inputs": []
    }, 
    {
      "op": "null", 
      "name": "conv4_7_expand_bn_moving_mean", 
      "attrs": {
        "__init__": "[\"zero\", {}]", 
        "eps": "0.0001", 
        "fix_gamma": "False", 
        "use_global_stats": "True"
      }, 
      "inputs": []
    }, 
    {
      "op": "null", 
      "name": "conv4_7_expand_bn_moving_var", 
      "attrs": {
        "__init__": "[\"one\", {}]", 
        "eps": "0.0001", 
        "fix_gamma": "False", 
        "use_global_stats": "True"
      }, 
      "inputs": []
    }, 
    {
      "op": "BatchNorm", 
      "name": "conv4_7_expand_bn", 
      "attrs": {
        "eps": "0.0001", 
        "fix_gamma": "False", 
        "use_global_stats": "True"
      }, 
      "inputs": [[248, 0, 0], [249, 0, 0], [250, 0, 0], [251, 0, 1], [252, 0, 1]]
    }, 
    {
      "op": "Activation", 
      "name": "relu4_7_expand", 
      "attrs": {"act_type": "relu"}, 
      "inputs": [[253, 0, 0]]
    }, 
    {
      "op": "null", 
      "name": "conv4_7_dwise_weight", 
      "attrs": {
        "kernel": "(3, 3)", 
        "no_bias": "True", 
        "num_filter": "384", 
        "num_group": "384", 
        "pad": "(1, 1)", 
        "stride": "(2, 2)"
      }, 
      "inputs": []
    }, 
    {
      "op": "Convolution", 
      "name": "conv4_7_dwise", 
      "attrs": {
        "kernel": "(3, 3)", 
        "no_bias": "True", 
        "num_filter": "384", 
        "num_group": "384", 
        "pad": "(1, 1)", 
        "stride": "(2, 2)"
      }, 
      "inputs": [[254, 0, 0], [255, 0, 0]]
    }, 
    {
      "op": "null", 
      "name": "conv4_7_dwise_bn_gamma", 
      "attrs": {
        "eps": "0.0001", 
        "fix_gamma": "False", 
        "use_global_stats": "True"
      }, 
      "inputs": []
    }, 
    {
      "op": "null", 
      "name": "conv4_7_dwise_bn_beta", 
      "attrs": {
        "eps": "0.0001", 
        "fix_gamma": "False", 
        "use_global_stats": "True"
      }, 
      "inputs": []
    }, 
    {
      "op": "null", 
      "name": "conv4_7_dwise_bn_moving_mean", 
      "attrs": {
        "__init__": "[\"zero\", {}]", 
        "eps": "0.0001", 
        "fix_gamma": "False", 
        "use_global_stats": "True"
      }, 
      "inputs": []
    }, 
    {
      "op": "null", 
      "name": "conv4_7_dwise_bn_moving_var", 
      "attrs": {
        "__init__": "[\"one\", {}]", 
        "eps": "0.0001", 
        "fix_gamma": "False", 
        "use_global_stats": "True"
      }, 
      "inputs": []
    }, 
    {
      "op": "BatchNorm", 
      "name": "conv4_7_dwise_bn", 
      "attrs": {
        "eps": "0.0001", 
        "fix_gamma": "False", 
        "use_global_stats": "True"
      }, 
      "inputs": [[256, 0, 0], [257, 0, 0], [258, 0, 0], [259, 0, 1], [260, 0, 1]]
    }, 
    {
      "op": "Activation", 
      "name": "relu4_7_dwise", 
      "attrs": {"act_type": "relu"}, 
      "inputs": [[261, 0, 0]]
    }, 
    {
      "op": "null", 
      "name": "conv4_7_linear_weight", 
      "attrs": {
        "kernel": "(1, 1)", 
        "no_bias": "True", 
        "num_filter": "96", 
        "pad": "(0, 0)", 
        "stride": "(1, 1)"
      }, 
      "inputs": []
    }, 
    {
      "op": "Convolution", 
      "name": "conv4_7_linear", 
      "attrs": {
        "kernel": "(1, 1)", 
        "no_bias": "True", 
        "num_filter": "96", 
        "pad": "(0, 0)", 
        "stride": "(1, 1)"
      }, 
      "inputs": [[262, 0, 0], [263, 0, 0]]
    }, 
    {
      "op": "null", 
      "name": "conv4_7_linear_bn_gamma", 
      "attrs": {
        "eps": "0.0001", 
        "fix_gamma": "False", 
        "use_global_stats": "True"
      }, 
      "inputs": []
    }, 
    {
      "op": "null", 
      "name": "conv4_7_linear_bn_beta", 
      "attrs": {
        "eps": "0.0001", 
        "fix_gamma": "False", 
        "use_global_stats": "True"
      }, 
      "inputs": []
    }, 
    {
      "op": "null", 
      "name": "conv4_7_linear_bn_moving_mean", 
      "attrs": {
        "__init__": "[\"zero\", {}]", 
        "eps": "0.0001", 
        "fix_gamma": "False", 
        "use_global_stats": "True"
      }, 
      "inputs": []
    }, 
    {
      "op": "null", 
      "name": "conv4_7_linear_bn_moving_var", 
      "attrs": {
        "__init__": "[\"one\", {}]", 
        "eps": "0.0001", 
        "fix_gamma": "False", 
        "use_global_stats": "True"
      }, 
      "inputs": []
    }, 
    {
      "op": "BatchNorm", 
      "name": "conv4_7_linear_bn", 
      "attrs": {
        "eps": "0.0001", 
        "fix_gamma": "False", 
        "use_global_stats": "True"
      }, 
      "inputs": [[264, 0, 0], [265, 0, 0], [266, 0, 0], [267, 0, 1], [268, 0, 1]]
    }, 
    {
      "op": "null", 
      "name": "conv5_1_expand_weight", 
      "attrs": {
        "kernel": "(1, 1)", 
        "no_bias": "True", 
        "num_filter": "576", 
        "pad": "(0, 0)", 
        "stride": "(1, 1)"
      }, 
      "inputs": []
    }, 
    {
      "op": "Convolution", 
      "name": "conv5_1_expand", 
      "attrs": {
        "kernel": "(1, 1)", 
        "no_bias": "True", 
        "num_filter": "576", 
        "pad": "(0, 0)", 
        "stride": "(1, 1)"
      }, 
      "inputs": [[269, 0, 0], [270, 0, 0]]
    }, 
    {
      "op": "null", 
      "name": "conv5_1_expand_bn_gamma", 
      "attrs": {
        "eps": "0.0001", 
        "fix_gamma": "False", 
        "use_global_stats": "True"
      }, 
      "inputs": []
    }, 
    {
      "op": "null", 
      "name": "conv5_1_expand_bn_beta", 
      "attrs": {
        "eps": "0.0001", 
        "fix_gamma": "False", 
        "use_global_stats": "True"
      }, 
      "inputs": []
    }, 
    {
      "op": "null", 
      "name": "conv5_1_expand_bn_moving_mean", 
      "attrs": {
        "__init__": "[\"zero\", {}]", 
        "eps": "0.0001", 
        "fix_gamma": "False", 
        "use_global_stats": "True"
      }, 
      "inputs": []
    }, 
    {
      "op": "null", 
      "name": "conv5_1_expand_bn_moving_var", 
      "attrs": {
        "__init__": "[\"one\", {}]", 
        "eps": "0.0001", 
        "fix_gamma": "False", 
        "use_global_stats": "True"
      }, 
      "inputs": []
    }, 
    {
      "op": "BatchNorm", 
      "name": "conv5_1_expand_bn", 
      "attrs": {
        "eps": "0.0001", 
        "fix_gamma": "False", 
        "use_global_stats": "True"
      }, 
      "inputs": [[271, 0, 0], [272, 0, 0], [273, 0, 0], [274, 0, 1], [275, 0, 1]]
    }, 
    {
      "op": "Activation", 
      "name": "relu5_1_expand", 
      "attrs": {"act_type": "relu"}, 
      "inputs": [[276, 0, 0]]
    }, 
    {
      "op": "null", 
      "name": "conv5_1_dwise_weight", 
      "attrs": {
        "kernel": "(3, 3)", 
        "no_bias": "True", 
        "num_filter": "576", 
        "num_group": "576", 
        "pad": "(1, 1)", 
        "stride": "(1, 1)"
      }, 
      "inputs": []
    }, 
    {
      "op": "Convolution", 
      "name": "conv5_1_dwise", 
      "attrs": {
        "kernel": "(3, 3)", 
        "no_bias": "True", 
        "num_filter": "576", 
        "num_group": "576", 
        "pad": "(1, 1)", 
        "stride": "(1, 1)"
      }, 
      "inputs": [[277, 0, 0], [278, 0, 0]]
    }, 
    {
      "op": "null", 
      "name": "conv5_1_dwise_bn_gamma", 
      "attrs": {
        "eps": "0.0001", 
        "fix_gamma": "False", 
        "use_global_stats": "True"
      }, 
      "inputs": []
    }, 
    {
      "op": "null", 
      "name": "conv5_1_dwise_bn_beta", 
      "attrs": {
        "eps": "0.0001", 
        "fix_gamma": "False", 
        "use_global_stats": "True"
      }, 
      "inputs": []
    }, 
    {
      "op": "null", 
      "name": "conv5_1_dwise_bn_moving_mean", 
      "attrs": {
        "__init__": "[\"zero\", {}]", 
        "eps": "0.0001", 
        "fix_gamma": "False", 
        "use_global_stats": "True"
      }, 
      "inputs": []
    }, 
    {
      "op": "null", 
      "name": "conv5_1_dwise_bn_moving_var", 
      "attrs": {
        "__init__": "[\"one\", {}]", 
        "eps": "0.0001", 
        "fix_gamma": "False", 
        "use_global_stats": "True"
      }, 
      "inputs": []
    }, 
    {
      "op": "BatchNorm", 
      "name": "conv5_1_dwise_bn", 
      "attrs": {
        "eps": "0.0001", 
        "fix_gamma": "False", 
        "use_global_stats": "True"
      }, 
      "inputs": [[279, 0, 0], [280, 0, 0], [281, 0, 0], [282, 0, 1], [283, 0, 1]]
    }, 
    {
      "op": "Activation", 
      "name": "relu5_1_dwise", 
      "attrs": {"act_type": "relu"}, 
      "inputs": [[284, 0, 0]]
    }, 
    {
      "op": "null", 
      "name": "conv5_1_linear_weight", 
      "attrs": {
        "kernel": "(1, 1)", 
        "no_bias": "True", 
        "num_filter": "96", 
        "pad": "(0, 0)", 
        "stride": "(1, 1)"
      }, 
      "inputs": []
    }, 
    {
      "op": "Convolution", 
      "name": "conv5_1_linear", 
      "attrs": {
        "kernel": "(1, 1)", 
        "no_bias": "True", 
        "num_filter": "96", 
        "pad": "(0, 0)", 
        "stride": "(1, 1)"
      }, 
      "inputs": [[285, 0, 0], [286, 0, 0]]
    }, 
    {
      "op": "null", 
      "name": "conv5_1_linear_bn_gamma", 
      "attrs": {
        "eps": "0.0001", 
        "fix_gamma": "False", 
        "use_global_stats": "True"
      }, 
      "inputs": []
    }, 
    {
      "op": "null", 
      "name": "conv5_1_linear_bn_beta", 
      "attrs": {
        "eps": "0.0001", 
        "fix_gamma": "False", 
        "use_global_stats": "True"
      }, 
      "inputs": []
    }, 
    {
      "op": "null", 
      "name": "conv5_1_linear_bn_moving_mean", 
      "attrs": {
        "__init__": "[\"zero\", {}]", 
        "eps": "0.0001", 
        "fix_gamma": "False", 
        "use_global_stats": "True"
      }, 
      "inputs": []
    }, 
    {
      "op": "null", 
      "name": "conv5_1_linear_bn_moving_var", 
      "attrs": {
        "__init__": "[\"one\", {}]", 
        "eps": "0.0001", 
        "fix_gamma": "False", 
        "use_global_stats": "True"
      }, 
      "inputs": []
    }, 
    {
      "op": "BatchNorm", 
      "name": "conv5_1_linear_bn", 
      "attrs": {
        "eps": "0.0001", 
        "fix_gamma": "False", 
        "use_global_stats": "True"
      }, 
      "inputs": [[287, 0, 0], [288, 0, 0], [289, 0, 0], [290, 0, 1], [291, 0, 1]]
    }, 
    {
      "op": "broadcast_add", 
      "name": "block_5_1", 
      "inputs": [[269, 0, 0], [292, 0, 0]]
    }, 
    {
      "op": "null", 
      "name": "conv5_2_expand_weight", 
      "attrs": {
        "kernel": "(1, 1)", 
        "no_bias": "True", 
        "num_filter": "576", 
        "pad": "(0, 0)", 
        "stride": "(1, 1)"
      }, 
      "inputs": []
    }, 
    {
      "op": "Convolution", 
      "name": "conv5_2_expand", 
      "attrs": {
        "kernel": "(1, 1)", 
        "no_bias": "True", 
        "num_filter": "576", 
        "pad": "(0, 0)", 
        "stride": "(1, 1)"
      }, 
      "inputs": [[293, 0, 0], [294, 0, 0]]
    }, 
    {
      "op": "null", 
      "name": "conv5_2_expand_bn_gamma", 
      "attrs": {
        "eps": "0.0001", 
        "fix_gamma": "False", 
        "use_global_stats": "True"
      }, 
      "inputs": []
    }, 
    {
      "op": "null", 
      "name": "conv5_2_expand_bn_beta", 
      "attrs": {
        "eps": "0.0001", 
        "fix_gamma": "False", 
        "use_global_stats": "True"
      }, 
      "inputs": []
    }, 
    {
      "op": "null", 
      "name": "conv5_2_expand_bn_moving_mean", 
      "attrs": {
        "__init__": "[\"zero\", {}]", 
        "eps": "0.0001", 
        "fix_gamma": "False", 
        "use_global_stats": "True"
      }, 
      "inputs": []
    }, 
    {
      "op": "null", 
      "name": "conv5_2_expand_bn_moving_var", 
      "attrs": {
        "__init__": "[\"one\", {}]", 
        "eps": "0.0001", 
        "fix_gamma": "False", 
        "use_global_stats": "True"
      }, 
      "inputs": []
    }, 
    {
      "op": "BatchNorm", 
      "name": "conv5_2_expand_bn", 
      "attrs": {
        "eps": "0.0001", 
        "fix_gamma": "False", 
        "use_global_stats": "True"
      }, 
      "inputs": [[295, 0, 0], [296, 0, 0], [297, 0, 0], [298, 0, 1], [299, 0, 1]]
    }, 
    {
      "op": "Activation", 
      "name": "relu5_2_expand", 
      "attrs": {"act_type": "relu"}, 
      "inputs": [[300, 0, 0]]
    }, 
    {
      "op": "null", 
      "name": "conv5_2_dwise_weight", 
      "attrs": {
        "kernel": "(3, 3)", 
        "no_bias": "True", 
        "num_filter": "576", 
        "num_group": "576", 
        "pad": "(1, 1)", 
        "stride": "(1, 1)"
      }, 
      "inputs": []
    }, 
    {
      "op": "Convolution", 
      "name": "conv5_2_dwise", 
      "attrs": {
        "kernel": "(3, 3)", 
        "no_bias": "True", 
        "num_filter": "576", 
        "num_group": "576", 
        "pad": "(1, 1)", 
        "stride": "(1, 1)"
      }, 
      "inputs": [[301, 0, 0], [302, 0, 0]]
    }, 
    {
      "op": "null", 
      "name": "conv5_2_dwise_bn_gamma", 
      "attrs": {
        "eps": "0.0001", 
        "fix_gamma": "False", 
        "use_global_stats": "True"
      }, 
      "inputs": []
    }, 
    {
      "op": "null", 
      "name": "conv5_2_dwise_bn_beta", 
      "attrs": {
        "eps": "0.0001", 
        "fix_gamma": "False", 
        "use_global_stats": "True"
      }, 
      "inputs": []
    }, 
    {
      "op": "null", 
      "name": "conv5_2_dwise_bn_moving_mean", 
      "attrs": {
        "__init__": "[\"zero\", {}]", 
        "eps": "0.0001", 
        "fix_gamma": "False", 
        "use_global_stats": "True"
      }, 
      "inputs": []
    }, 
    {
      "op": "null", 
      "name": "conv5_2_dwise_bn_moving_var", 
      "attrs": {
        "__init__": "[\"one\", {}]", 
        "eps": "0.0001", 
        "fix_gamma": "False", 
        "use_global_stats": "True"
      }, 
      "inputs": []
    }, 
    {
      "op": "BatchNorm", 
      "name": "conv5_2_dwise_bn", 
      "attrs": {
        "eps": "0.0001", 
        "fix_gamma": "False", 
        "use_global_stats": "True"
      }, 
      "inputs": [[303, 0, 0], [304, 0, 0], [305, 0, 0], [306, 0, 1], [307, 0, 1]]
    }, 
    {
      "op": "Activation", 
      "name": "relu5_2_dwise", 
      "attrs": {"act_type": "relu"}, 
      "inputs": [[308, 0, 0]]
    }, 
    {
      "op": "null", 
      "name": "conv5_2_linear_weight", 
      "attrs": {
        "kernel": "(1, 1)", 
        "no_bias": "True", 
        "num_filter": "96", 
        "pad": "(0, 0)", 
        "stride": "(1, 1)"
      }, 
      "inputs": []
    }, 
    {
      "op": "Convolution", 
      "name": "conv5_2_linear", 
      "attrs": {
        "kernel": "(1, 1)", 
        "no_bias": "True", 
        "num_filter": "96", 
        "pad": "(0, 0)", 
        "stride": "(1, 1)"
      }, 
      "inputs": [[309, 0, 0], [310, 0, 0]]
    }, 
    {
      "op": "null", 
      "name": "conv5_2_linear_bn_gamma", 
      "attrs": {
        "eps": "0.0001", 
        "fix_gamma": "False", 
        "use_global_stats": "True"
      }, 
      "inputs": []
    }, 
    {
      "op": "null", 
      "name": "conv5_2_linear_bn_beta", 
      "attrs": {
        "eps": "0.0001", 
        "fix_gamma": "False", 
        "use_global_stats": "True"
      }, 
      "inputs": []
    }, 
    {
      "op": "null", 
      "name": "conv5_2_linear_bn_moving_mean", 
      "attrs": {
        "__init__": "[\"zero\", {}]", 
        "eps": "0.0001", 
        "fix_gamma": "False", 
        "use_global_stats": "True"
      }, 
      "inputs": []
    }, 
    {
      "op": "null", 
      "name": "conv5_2_linear_bn_moving_var", 
      "attrs": {
        "__init__": "[\"one\", {}]", 
        "eps": "0.0001", 
        "fix_gamma": "False", 
        "use_global_stats": "True"
      }, 
      "inputs": []
    }, 
    {
      "op": "BatchNorm", 
      "name": "conv5_2_linear_bn", 
      "attrs": {
        "eps": "0.0001", 
        "fix_gamma": "False", 
        "use_global_stats": "True"
      }, 
      "inputs": [[311, 0, 0], [312, 0, 0], [313, 0, 0], [314, 0, 1], [315, 0, 1]]
    }, 
    {
      "op": "broadcast_add", 
      "name": "block_5_2", 
      "inputs": [[293, 0, 0], [316, 0, 0]]
    }, 
    {
      "op": "null", 
      "name": "conv5_3_expand_weight", 
      "attrs": {
        "kernel": "(1, 1)", 
        "no_bias": "True", 
        "num_filter": "576", 
        "pad": "(0, 0)", 
        "stride": "(1, 1)"
      }, 
      "inputs": []
    }, 
    {
      "op": "Convolution", 
      "name": "conv5_3_expand", 
      "attrs": {
        "kernel": "(1, 1)", 
        "no_bias": "True", 
        "num_filter": "576", 
        "pad": "(0, 0)", 
        "stride": "(1, 1)"
      }, 
      "inputs": [[317, 0, 0], [318, 0, 0]]
    }, 
    {
      "op": "null", 
      "name": "conv5_3_expand_bn_gamma", 
      "attrs": {
        "eps": "0.0001", 
        "fix_gamma": "False", 
        "use_global_stats": "True"
      }, 
      "inputs": []
    }, 
    {
      "op": "null", 
      "name": "conv5_3_expand_bn_beta", 
      "attrs": {
        "eps": "0.0001", 
        "fix_gamma": "False", 
        "use_global_stats": "True"
      }, 
      "inputs": []
    }, 
    {
      "op": "null", 
      "name": "conv5_3_expand_bn_moving_mean", 
      "attrs": {
        "__init__": "[\"zero\", {}]", 
        "eps": "0.0001", 
        "fix_gamma": "False", 
        "use_global_stats": "True"
      }, 
      "inputs": []
    }, 
    {
      "op": "null", 
      "name": "conv5_3_expand_bn_moving_var", 
      "attrs": {
        "__init__": "[\"one\", {}]", 
        "eps": "0.0001", 
        "fix_gamma": "False", 
        "use_global_stats": "True"
      }, 
      "inputs": []
    }, 
    {
      "op": "BatchNorm", 
      "name": "conv5_3_expand_bn", 
      "attrs": {
        "eps": "0.0001", 
        "fix_gamma": "False", 
        "use_global_stats": "True"
      }, 
      "inputs": [[319, 0, 0], [320, 0, 0], [321, 0, 0], [322, 0, 1], [323, 0, 1]]
    }, 
    {
      "op": "Activation", 
      "name": "relu5_3_expand", 
      "attrs": {"act_type": "relu"}, 
      "inputs": [[324, 0, 0]]
    }, 
    {
      "op": "null", 
      "name": "conv5_3_dwise_weight", 
      "attrs": {
        "kernel": "(3, 3)", 
        "no_bias": "True", 
        "num_filter": "576", 
        "num_group": "576", 
        "pad": "(1, 1)", 
        "stride": "(2, 2)"
      }, 
      "inputs": []
    }, 
    {
      "op": "Convolution", 
      "name": "conv5_3_dwise", 
      "attrs": {
        "kernel": "(3, 3)", 
        "no_bias": "True", 
        "num_filter": "576", 
        "num_group": "576", 
        "pad": "(1, 1)", 
        "stride": "(2, 2)"
      }, 
      "inputs": [[325, 0, 0], [326, 0, 0]]
    }, 
    {
      "op": "null", 
      "name": "conv5_3_dwise_bn_gamma", 
      "attrs": {
        "eps": "0.0001", 
        "fix_gamma": "False", 
        "use_global_stats": "True"
      }, 
      "inputs": []
    }, 
    {
      "op": "null", 
      "name": "conv5_3_dwise_bn_beta", 
      "attrs": {
        "eps": "0.0001", 
        "fix_gamma": "False", 
        "use_global_stats": "True"
      }, 
      "inputs": []
    }, 
    {
      "op": "null", 
      "name": "conv5_3_dwise_bn_moving_mean", 
      "attrs": {
        "__init__": "[\"zero\", {}]", 
        "eps": "0.0001", 
        "fix_gamma": "False", 
        "use_global_stats": "True"
      }, 
      "inputs": []
    }, 
    {
      "op": "null", 
      "name": "conv5_3_dwise_bn_moving_var", 
      "attrs": {
        "__init__": "[\"one\", {}]", 
        "eps": "0.0001", 
        "fix_gamma": "False", 
        "use_global_stats": "True"
      }, 
      "inputs": []
    }, 
    {
      "op": "BatchNorm", 
      "name": "conv5_3_dwise_bn", 
      "attrs": {
        "eps": "0.0001", 
        "fix_gamma": "False", 
        "use_global_stats": "True"
      }, 
      "inputs": [[327, 0, 0], [328, 0, 0], [329, 0, 0], [330, 0, 1], [331, 0, 1]]
    }, 
    {
      "op": "Activation", 
      "name": "relu5_3_dwise", 
      "attrs": {"act_type": "relu"}, 
      "inputs": [[332, 0, 0]]
    }, 
    {
      "op": "null", 
      "name": "conv5_3_linear_weight", 
      "attrs": {
        "kernel": "(1, 1)", 
        "no_bias": "True", 
        "num_filter": "160", 
        "pad": "(0, 0)", 
        "stride": "(1, 1)"
      }, 
      "inputs": []
    }, 
    {
      "op": "Convolution", 
      "name": "conv5_3_linear", 
      "attrs": {
        "kernel": "(1, 1)", 
        "no_bias": "True", 
        "num_filter": "160", 
        "pad": "(0, 0)", 
        "stride": "(1, 1)"
      }, 
      "inputs": [[333, 0, 0], [334, 0, 0]]
    }, 
    {
      "op": "null", 
      "name": "conv5_3_linear_bn_gamma", 
      "attrs": {
        "eps": "0.0001", 
        "fix_gamma": "False", 
        "use_global_stats": "True"
      }, 
      "inputs": []
    }, 
    {
      "op": "null", 
      "name": "conv5_3_linear_bn_beta", 
      "attrs": {
        "eps": "0.0001", 
        "fix_gamma": "False", 
        "use_global_stats": "True"
      }, 
      "inputs": []
    }, 
    {
      "op": "null", 
      "name": "conv5_3_linear_bn_moving_mean", 
      "attrs": {
        "__init__": "[\"zero\", {}]", 
        "eps": "0.0001", 
        "fix_gamma": "False", 
        "use_global_stats": "True"
      }, 
      "inputs": []
    }, 
    {
      "op": "null", 
      "name": "conv5_3_linear_bn_moving_var", 
      "attrs": {
        "__init__": "[\"one\", {}]", 
        "eps": "0.0001", 
        "fix_gamma": "False", 
        "use_global_stats": "True"
      }, 
      "inputs": []
    }, 
    {
      "op": "BatchNorm", 
      "name": "conv5_3_linear_bn", 
      "attrs": {
        "eps": "0.0001", 
        "fix_gamma": "False", 
        "use_global_stats": "True"
      }, 
      "inputs": [[335, 0, 0], [336, 0, 0], [337, 0, 0], [338, 0, 1], [339, 0, 1]]
    }, 
    {
      "op": "null", 
      "name": "conv6_1_expand_weight", 
      "attrs": {
        "kernel": "(1, 1)", 
        "no_bias": "True", 
        "num_filter": "960", 
        "pad": "(0, 0)", 
        "stride": "(1, 1)"
      }, 
      "inputs": []
    }, 
    {
      "op": "Convolution", 
      "name": "conv6_1_expand", 
      "attrs": {
        "kernel": "(1, 1)", 
        "no_bias": "True", 
        "num_filter": "960", 
        "pad": "(0, 0)", 
        "stride": "(1, 1)"
      }, 
      "inputs": [[340, 0, 0], [341, 0, 0]]
    }, 
    {
      "op": "null", 
      "name": "conv6_1_expand_bn_gamma", 
      "attrs": {
        "eps": "0.0001", 
        "fix_gamma": "False", 
        "use_global_stats": "True"
      }, 
      "inputs": []
    }, 
    {
      "op": "null", 
      "name": "conv6_1_expand_bn_beta", 
      "attrs": {
        "eps": "0.0001", 
        "fix_gamma": "False", 
        "use_global_stats": "True"
      }, 
      "inputs": []
    }, 
    {
      "op": "null", 
      "name": "conv6_1_expand_bn_moving_mean", 
      "attrs": {
        "__init__": "[\"zero\", {}]", 
        "eps": "0.0001", 
        "fix_gamma": "False", 
        "use_global_stats": "True"
      }, 
      "inputs": []
    }, 
    {
      "op": "null", 
      "name": "conv6_1_expand_bn_moving_var", 
      "attrs": {
        "__init__": "[\"one\", {}]", 
        "eps": "0.0001", 
        "fix_gamma": "False", 
        "use_global_stats": "True"
      }, 
      "inputs": []
    }, 
    {
      "op": "BatchNorm", 
      "name": "conv6_1_expand_bn", 
      "attrs": {
        "eps": "0.0001", 
        "fix_gamma": "False", 
        "use_global_stats": "True"
      }, 
      "inputs": [[342, 0, 0], [343, 0, 0], [344, 0, 0], [345, 0, 1], [346, 0, 1]]
    }, 
    {
      "op": "Activation", 
      "name": "relu6_1_expand", 
      "attrs": {"act_type": "relu"}, 
      "inputs": [[347, 0, 0]]
    }, 
    {
      "op": "null", 
      "name": "conv6_1_dwise_weight", 
      "attrs": {
        "kernel": "(3, 3)", 
        "no_bias": "True", 
        "num_filter": "960", 
        "num_group": "960", 
        "pad": "(1, 1)", 
        "stride": "(1, 1)"
      }, 
      "inputs": []
    }, 
    {
      "op": "Convolution", 
      "name": "conv6_1_dwise", 
      "attrs": {
        "kernel": "(3, 3)", 
        "no_bias": "True", 
        "num_filter": "960", 
        "num_group": "960", 
        "pad": "(1, 1)", 
        "stride": "(1, 1)"
      }, 
      "inputs": [[348, 0, 0], [349, 0, 0]]
    }, 
    {
      "op": "null", 
      "name": "conv6_1_dwise_bn_gamma", 
      "attrs": {
        "eps": "0.0001", 
        "fix_gamma": "False", 
        "use_global_stats": "True"
      }, 
      "inputs": []
    }, 
    {
      "op": "null", 
      "name": "conv6_1_dwise_bn_beta", 
      "attrs": {
        "eps": "0.0001", 
        "fix_gamma": "False", 
        "use_global_stats": "True"
      }, 
      "inputs": []
    }, 
    {
      "op": "null", 
      "name": "conv6_1_dwise_bn_moving_mean", 
      "attrs": {
        "__init__": "[\"zero\", {}]", 
        "eps": "0.0001", 
        "fix_gamma": "False", 
        "use_global_stats": "True"
      }, 
      "inputs": []
    }, 
    {
      "op": "null", 
      "name": "conv6_1_dwise_bn_moving_var", 
      "attrs": {
        "__init__": "[\"one\", {}]", 
        "eps": "0.0001", 
        "fix_gamma": "False", 
        "use_global_stats": "True"
      }, 
      "inputs": []
    }, 
    {
      "op": "BatchNorm", 
      "name": "conv6_1_dwise_bn", 
      "attrs": {
        "eps": "0.0001", 
        "fix_gamma": "False", 
        "use_global_stats": "True"
      }, 
      "inputs": [[350, 0, 0], [351, 0, 0], [352, 0, 0], [353, 0, 1], [354, 0, 1]]
    }, 
    {
      "op": "Activation", 
      "name": "relu6_1_dwise", 
      "attrs": {"act_type": "relu"}, 
      "inputs": [[355, 0, 0]]
    }, 
    {
      "op": "null", 
      "name": "conv6_1_linear_weight", 
      "attrs": {
        "kernel": "(1, 1)", 
        "no_bias": "True", 
        "num_filter": "160", 
        "pad": "(0, 0)", 
        "stride": "(1, 1)"
      }, 
      "inputs": []
    }, 
    {
      "op": "Convolution", 
      "name": "conv6_1_linear", 
      "attrs": {
        "kernel": "(1, 1)", 
        "no_bias": "True", 
        "num_filter": "160", 
        "pad": "(0, 0)", 
        "stride": "(1, 1)"
      }, 
      "inputs": [[356, 0, 0], [357, 0, 0]]
    }, 
    {
      "op": "null", 
      "name": "conv6_1_linear_bn_gamma", 
      "attrs": {
        "eps": "0.0001", 
        "fix_gamma": "False", 
        "use_global_stats": "True"
      }, 
      "inputs": []
    }, 
    {
      "op": "null", 
      "name": "conv6_1_linear_bn_beta", 
      "attrs": {
        "eps": "0.0001", 
        "fix_gamma": "False", 
        "use_global_stats": "True"
      }, 
      "inputs": []
    }, 
    {
      "op": "null", 
      "name": "conv6_1_linear_bn_moving_mean", 
      "attrs": {
        "__init__": "[\"zero\", {}]", 
        "eps": "0.0001", 
        "fix_gamma": "False", 
        "use_global_stats": "True"
      }, 
      "inputs": []
    }, 
    {
      "op": "null", 
      "name": "conv6_1_linear_bn_moving_var", 
      "attrs": {
        "__init__": "[\"one\", {}]", 
        "eps": "0.0001", 
        "fix_gamma": "False", 
        "use_global_stats": "True"
      }, 
      "inputs": []
    }, 
    {
      "op": "BatchNorm", 
      "name": "conv6_1_linear_bn", 
      "attrs": {
        "eps": "0.0001", 
        "fix_gamma": "False", 
        "use_global_stats": "True"
      }, 
      "inputs": [[358, 0, 0], [359, 0, 0], [360, 0, 0], [361, 0, 1], [362, 0, 1]]
    }, 
    {
      "op": "broadcast_add", 
      "name": "block_6_1", 
      "inputs": [[340, 0, 0], [363, 0, 0]]
    }, 
    {
      "op": "null", 
      "name": "conv6_2_expand_weight", 
      "attrs": {
        "kernel": "(1, 1)", 
        "no_bias": "True", 
        "num_filter": "960", 
        "pad": "(0, 0)", 
        "stride": "(1, 1)"
      }, 
      "inputs": []
    }, 
    {
      "op": "Convolution", 
      "name": "conv6_2_expand", 
      "attrs": {
        "kernel": "(1, 1)", 
        "no_bias": "True", 
        "num_filter": "960", 
        "pad": "(0, 0)", 
        "stride": "(1, 1)"
      }, 
      "inputs": [[364, 0, 0], [365, 0, 0]]
    }, 
    {
      "op": "null", 
      "name": "conv6_2_expand_bn_gamma", 
      "attrs": {
        "eps": "0.0001", 
        "fix_gamma": "False", 
        "use_global_stats": "True"
      }, 
      "inputs": []
    }, 
    {
      "op": "null", 
      "name": "conv6_2_expand_bn_beta", 
      "attrs": {
        "eps": "0.0001", 
        "fix_gamma": "False", 
        "use_global_stats": "True"
      }, 
      "inputs": []
    }, 
    {
      "op": "null", 
      "name": "conv6_2_expand_bn_moving_mean", 
      "attrs": {
        "__init__": "[\"zero\", {}]", 
        "eps": "0.0001", 
        "fix_gamma": "False", 
        "use_global_stats": "True"
      }, 
      "inputs": []
    }, 
    {
      "op": "null", 
      "name": "conv6_2_expand_bn_moving_var", 
      "attrs": {
        "__init__": "[\"one\", {}]", 
        "eps": "0.0001", 
        "fix_gamma": "False", 
        "use_global_stats": "True"
      }, 
      "inputs": []
    }, 
    {
      "op": "BatchNorm", 
      "name": "conv6_2_expand_bn", 
      "attrs": {
        "eps": "0.0001", 
        "fix_gamma": "False", 
        "use_global_stats": "True"
      }, 
      "inputs": [[366, 0, 0], [367, 0, 0], [368, 0, 0], [369, 0, 1], [370, 0, 1]]
    }, 
    {
      "op": "Activation", 
      "name": "relu6_2_expand", 
      "attrs": {"act_type": "relu"}, 
      "inputs": [[371, 0, 0]]
    }, 
    {
      "op": "null", 
      "name": "conv6_2_dwise_weight", 
      "attrs": {
        "kernel": "(3, 3)", 
        "no_bias": "True", 
        "num_filter": "960", 
        "num_group": "960", 
        "pad": "(1, 1)", 
        "stride": "(1, 1)"
      }, 
      "inputs": []
    }, 
    {
      "op": "Convolution", 
      "name": "conv6_2_dwise", 
      "attrs": {
        "kernel": "(3, 3)", 
        "no_bias": "True", 
        "num_filter": "960", 
        "num_group": "960", 
        "pad": "(1, 1)", 
        "stride": "(1, 1)"
      }, 
      "inputs": [[372, 0, 0], [373, 0, 0]]
    }, 
    {
      "op": "null", 
      "name": "conv6_2_dwise_bn_gamma", 
      "attrs": {
        "eps": "0.0001", 
        "fix_gamma": "False", 
        "use_global_stats": "True"
      }, 
      "inputs": []
    }, 
    {
      "op": "null", 
      "name": "conv6_2_dwise_bn_beta", 
      "attrs": {
        "eps": "0.0001", 
        "fix_gamma": "False", 
        "use_global_stats": "True"
      }, 
      "inputs": []
    }, 
    {
      "op": "null", 
      "name": "conv6_2_dwise_bn_moving_mean", 
      "attrs": {
        "__init__": "[\"zero\", {}]", 
        "eps": "0.0001", 
        "fix_gamma": "False", 
        "use_global_stats": "True"
      }, 
      "inputs": []
    }, 
    {
      "op": "null", 
      "name": "conv6_2_dwise_bn_moving_var", 
      "attrs": {
        "__init__": "[\"one\", {}]", 
        "eps": "0.0001", 
        "fix_gamma": "False", 
        "use_global_stats": "True"
      }, 
      "inputs": []
    }, 
    {
      "op": "BatchNorm", 
      "name": "conv6_2_dwise_bn", 
      "attrs": {
        "eps": "0.0001", 
        "fix_gamma": "False", 
        "use_global_stats": "True"
      }, 
      "inputs": [[374, 0, 0], [375, 0, 0], [376, 0, 0], [377, 0, 1], [378, 0, 1]]
    }, 
    {
      "op": "Activation", 
      "name": "relu6_2_dwise", 
      "attrs": {"act_type": "relu"}, 
      "inputs": [[379, 0, 0]]
    }, 
    {
      "op": "null", 
      "name": "conv6_2_linear_weight", 
      "attrs": {
        "kernel": "(1, 1)", 
        "no_bias": "True", 
        "num_filter": "160", 
        "pad": "(0, 0)", 
        "stride": "(1, 1)"
      }, 
      "inputs": []
    }, 
    {
      "op": "Convolution", 
      "name": "conv6_2_linear", 
      "attrs": {
        "kernel": "(1, 1)", 
        "no_bias": "True", 
        "num_filter": "160", 
        "pad": "(0, 0)", 
        "stride": "(1, 1)"
      }, 
      "inputs": [[380, 0, 0], [381, 0, 0]]
    }, 
    {
      "op": "null", 
      "name": "conv6_2_linear_bn_gamma", 
      "attrs": {
        "eps": "0.0001", 
        "fix_gamma": "False", 
        "use_global_stats": "True"
      }, 
      "inputs": []
    }, 
    {
      "op": "null", 
      "name": "conv6_2_linear_bn_beta", 
      "attrs": {
        "eps": "0.0001", 
        "fix_gamma": "False", 
        "use_global_stats": "True"
      }, 
      "inputs": []
    }, 
    {
      "op": "null", 
      "name": "conv6_2_linear_bn_moving_mean", 
      "attrs": {
        "__init__": "[\"zero\", {}]", 
        "eps": "0.0001", 
        "fix_gamma": "False", 
        "use_global_stats": "True"
      }, 
      "inputs": []
    }, 
    {
      "op": "null", 
      "name": "conv6_2_linear_bn_moving_var", 
      "attrs": {
        "__init__": "[\"one\", {}]", 
        "eps": "0.0001", 
        "fix_gamma": "False", 
        "use_global_stats": "True"
      }, 
      "inputs": []
    }, 
    {
      "op": "BatchNorm", 
      "name": "conv6_2_linear_bn", 
      "attrs": {
        "eps": "0.0001", 
        "fix_gamma": "False", 
        "use_global_stats": "True"
      }, 
      "inputs": [[382, 0, 0], [383, 0, 0], [384, 0, 0], [385, 0, 1], [386, 0, 1]]
    }, 
    {
      "op": "broadcast_add", 
      "name": "block_6_2", 
      "inputs": [[364, 0, 0], [387, 0, 0]]
    }, 
    {
      "op": "null", 
      "name": "conv6_3_expand_weight", 
      "attrs": {
        "kernel": "(1, 1)", 
        "no_bias": "True", 
        "num_filter": "960", 
        "pad": "(0, 0)", 
        "stride": "(1, 1)"
      }, 
      "inputs": []
    }, 
    {
      "op": "Convolution", 
      "name": "conv6_3_expand", 
      "attrs": {
        "kernel": "(1, 1)", 
        "no_bias": "True", 
        "num_filter": "960", 
        "pad": "(0, 0)", 
        "stride": "(1, 1)"
      }, 
      "inputs": [[388, 0, 0], [389, 0, 0]]
    }, 
    {
      "op": "null", 
      "name": "conv6_3_expand_bn_gamma", 
      "attrs": {
        "eps": "0.0001", 
        "fix_gamma": "False", 
        "use_global_stats": "True"
      }, 
      "inputs": []
    }, 
    {
      "op": "null", 
      "name": "conv6_3_expand_bn_beta", 
      "attrs": {
        "eps": "0.0001", 
        "fix_gamma": "False", 
        "use_global_stats": "True"
      }, 
      "inputs": []
    }, 
    {
      "op": "null", 
      "name": "conv6_3_expand_bn_moving_mean", 
      "attrs": {
        "__init__": "[\"zero\", {}]", 
        "eps": "0.0001", 
        "fix_gamma": "False", 
        "use_global_stats": "True"
      }, 
      "inputs": []
    }, 
    {
      "op": "null", 
      "name": "conv6_3_expand_bn_moving_var", 
      "attrs": {
        "__init__": "[\"one\", {}]", 
        "eps": "0.0001", 
        "fix_gamma": "False", 
        "use_global_stats": "True"
      }, 
      "inputs": []
    }, 
    {
      "op": "BatchNorm", 
      "name": "conv6_3_expand_bn", 
      "attrs": {
        "eps": "0.0001", 
        "fix_gamma": "False", 
        "use_global_stats": "True"
      }, 
      "inputs": [[390, 0, 0], [391, 0, 0], [392, 0, 0], [393, 0, 1], [394, 0, 1]]
    }, 
    {
      "op": "Activation", 
      "name": "relu6_3_expand", 
      "attrs": {"act_type": "relu"}, 
      "inputs": [[395, 0, 0]]
    }, 
    {
      "op": "null", 
      "name": "conv6_3_dwise_weight", 
      "attrs": {
        "kernel": "(3, 3)", 
        "no_bias": "True", 
        "num_filter": "960", 
        "num_group": "960", 
        "pad": "(1, 1)", 
        "stride": "(1, 1)"
      }, 
      "inputs": []
    }, 
    {
      "op": "Convolution", 
      "name": "conv6_3_dwise", 
      "attrs": {
        "kernel": "(3, 3)", 
        "no_bias": "True", 
        "num_filter": "960", 
        "num_group": "960", 
        "pad": "(1, 1)", 
        "stride": "(1, 1)"
      }, 
      "inputs": [[396, 0, 0], [397, 0, 0]]
    }, 
    {
      "op": "null", 
      "name": "conv6_3_dwise_bn_gamma", 
      "attrs": {
        "eps": "0.0001", 
        "fix_gamma": "False", 
        "use_global_stats": "True"
      }, 
      "inputs": []
    }, 
    {
      "op": "null", 
      "name": "conv6_3_dwise_bn_beta", 
      "attrs": {
        "eps": "0.0001", 
        "fix_gamma": "False", 
        "use_global_stats": "True"
      }, 
      "inputs": []
    }, 
    {
      "op": "null", 
      "name": "conv6_3_dwise_bn_moving_mean", 
      "attrs": {
        "__init__": "[\"zero\", {}]", 
        "eps": "0.0001", 
        "fix_gamma": "False", 
        "use_global_stats": "True"
      }, 
      "inputs": []
    }, 
    {
      "op": "null", 
      "name": "conv6_3_dwise_bn_moving_var", 
      "attrs": {
        "__init__": "[\"one\", {}]", 
        "eps": "0.0001", 
        "fix_gamma": "False", 
        "use_global_stats": "True"
      }, 
      "inputs": []
    }, 
    {
      "op": "BatchNorm", 
      "name": "conv6_3_dwise_bn", 
      "attrs": {
        "eps": "0.0001", 
        "fix_gamma": "False", 
        "use_global_stats": "True"
      }, 
      "inputs": [[398, 0, 0], [399, 0, 0], [400, 0, 0], [401, 0, 1], [402, 0, 1]]
    }, 
    {
      "op": "Activation", 
      "name": "relu6_3_dwise", 
      "attrs": {"act_type": "relu"}, 
      "inputs": [[403, 0, 0]]
    }, 
    {
      "op": "null", 
      "name": "conv6_3_linear_weight", 
      "attrs": {
        "kernel": "(1, 1)", 
        "no_bias": "True", 
        "num_filter": "320", 
        "pad": "(0, 0)", 
        "stride": "(1, 1)"
      }, 
      "inputs": []
    }, 
    {
      "op": "Convolution", 
      "name": "conv6_3_linear", 
      "attrs": {
        "kernel": "(1, 1)", 
        "no_bias": "True", 
        "num_filter": "320", 
        "pad": "(0, 0)", 
        "stride": "(1, 1)"
      }, 
      "inputs": [[404, 0, 0], [405, 0, 0]]
    }, 
    {
      "op": "null", 
      "name": "conv6_3_linear_bn_gamma", 
      "attrs": {
        "eps": "0.0001", 
        "fix_gamma": "False", 
        "use_global_stats": "True"
      }, 
      "inputs": []
    }, 
    {
      "op": "null", 
      "name": "conv6_3_linear_bn_beta", 
      "attrs": {
        "eps": "0.0001", 
        "fix_gamma": "False", 
        "use_global_stats": "True"
      }, 
      "inputs": []
    }, 
    {
      "op": "null", 
      "name": "conv6_3_linear_bn_moving_mean", 
      "attrs": {
        "__init__": "[\"zero\", {}]", 
        "eps": "0.0001", 
        "fix_gamma": "False", 
        "use_global_stats": "True"
      }, 
      "inputs": []
    }, 
    {
      "op": "null", 
      "name": "conv6_3_linear_bn_moving_var", 
      "attrs": {
        "__init__": "[\"one\", {}]", 
        "eps": "0.0001", 
        "fix_gamma": "False", 
        "use_global_stats": "True"
      }, 
      "inputs": []
    }, 
    {
      "op": "BatchNorm", 
      "name": "conv6_3_linear_bn", 
      "attrs": {
        "eps": "0.0001", 
        "fix_gamma": "False", 
        "use_global_stats": "True"
      }, 
      "inputs": [[406, 0, 0], [407, 0, 0], [408, 0, 0], [409, 0, 1], [410, 0, 1]]
    }, 
    {
      "op": "null", 
      "name": "lvl3_1_expend_weight", 
      "attrs": {
        "kernel": "(1, 1)", 
        "no_bias": "1", 
        "num_filter": "960", 
        "pad": "(0, 0)", 
        "stride": "(1, 1)"
      }, 
      "inputs": []
    }, 
    {
      "op": "Convolution", 
      "name": "lvl3_1_expend", 
      "attrs": {
        "kernel": "(1, 1)", 
        "no_bias": "1", 
        "num_filter": "960", 
        "pad": "(0, 0)", 
        "stride": "(1, 1)"
      }, 
      "inputs": [[411, 0, 0], [412, 0, 0]]
    }, 
    {
      "op": "null", 
      "name": "lvl3_1_expend_bn_gamma", 
      "attrs": {"fix_gamma": "0"}, 
      "inputs": []
    }, 
    {
      "op": "null", 
      "name": "lvl3_1_expend_bn_beta", 
      "attrs": {"fix_gamma": "0"}, 
      "inputs": []
    }, 
    {
      "op": "null", 
      "name": "lvl3_1_expend_bn_moving_mean", 
      "attrs": {
        "__init__": "[\"zero\", {}]", 
        "fix_gamma": "0"
      }, 
      "inputs": []
    }, 
    {
      "op": "null", 
      "name": "lvl3_1_expend_bn_moving_var", 
      "attrs": {
        "__init__": "[\"one\", {}]", 
        "fix_gamma": "0"
      }, 
      "inputs": []
    }, 
    {
      "op": "BatchNorm", 
      "name": "lvl3_1_expend_bn", 
      "attrs": {"fix_gamma": "0"}, 
      "inputs": [[413, 0, 0], [414, 0, 0], [415, 0, 0], [416, 0, 1], [417, 0, 1]]
    }, 
    {
      "op": "LeakyReLU", 
      "name": "lvl3_1_expend_relu", 
      "attrs": {
        "act_type": "leaky", 
        "slope": "0.1"
      }, 
      "inputs": [[418, 0, 0]]
    }, 
    {
      "op": "null", 
      "name": "lvl3_1_dwise_weight", 
      "attrs": {
        "kernel": "(3, 3)", 
        "no_bias": "1", 
        "num_filter": "960", 
        "num_group": "960", 
        "pad": "(1, 1)", 
        "stride": "(1, 1)"
      }, 
      "inputs": []
    }, 
    {
      "op": "Convolution", 
      "name": "lvl3_1_dwise", 
      "attrs": {
        "kernel": "(3, 3)", 
        "no_bias": "1", 
        "num_filter": "960", 
        "num_group": "960", 
        "pad": "(1, 1)", 
        "stride": "(1, 1)"
      }, 
      "inputs": [[419, 0, 0], [420, 0, 0]]
    }, 
    {
      "op": "null", 
      "name": "lvl3_1_dwise_bn_gamma", 
      "attrs": {"fix_gamma": "0"}, 
      "inputs": []
    }, 
    {
      "op": "null", 
      "name": "lvl3_1_dwise_bn_beta", 
      "attrs": {"fix_gamma": "0"}, 
      "inputs": []
    }, 
    {
      "op": "null", 
      "name": "lvl3_1_dwise_bn_moving_mean", 
      "attrs": {
        "__init__": "[\"zero\", {}]", 
        "fix_gamma": "0"
      }, 
      "inputs": []
    }, 
    {
      "op": "null", 
      "name": "lvl3_1_dwise_bn_moving_var", 
      "attrs": {
        "__init__": "[\"one\", {}]", 
        "fix_gamma": "0"
      }, 
      "inputs": []
    }, 
    {
      "op": "BatchNorm", 
      "name": "lvl3_1_dwise_bn", 
      "attrs": {"fix_gamma": "0"}, 
      "inputs": [[421, 0, 0], [422, 0, 0], [423, 0, 0], [424, 0, 1], [425, 0, 1]]
    }, 
    {
      "op": "LeakyReLU", 
      "name": "lvl3_1_dwise_relu", 
      "attrs": {
        "act_type": "leaky", 
        "slope": "0.1"
      }, 
      "inputs": [[426, 0, 0]]
    }, 
    {
      "op": "null", 
      "name": "lvl3_1_restore_weight", 
      "attrs": {
        "kernel": "(1, 1)", 
        "no_bias": "1", 
        "num_filter": "320", 
        "pad": "(0, 0)", 
        "stride": "(1, 1)"
      }, 
      "inputs": []
    }, 
    {
      "op": "Convolution", 
      "name": "lvl3_1_restore", 
      "attrs": {
        "kernel": "(1, 1)", 
        "no_bias": "1", 
        "num_filter": "320", 
        "pad": "(0, 0)", 
        "stride": "(1, 1)"
      }, 
      "inputs": [[427, 0, 0], [428, 0, 0]]
    }, 
    {
      "op": "null", 
      "name": "lvl3_1_restore_bn_gamma", 
      "attrs": {"fix_gamma": "0"}, 
      "inputs": []
    }, 
    {
      "op": "null", 
      "name": "lvl3_1_restore_bn_beta", 
      "attrs": {"fix_gamma": "0"}, 
      "inputs": []
    }, 
    {
      "op": "null", 
      "name": "lvl3_1_restore_bn_moving_mean", 
      "attrs": {
        "__init__": "[\"zero\", {}]", 
        "fix_gamma": "0"
      }, 
      "inputs": []
    }, 
    {
      "op": "null", 
      "name": "lvl3_1_restore_bn_moving_var", 
      "attrs": {
        "__init__": "[\"one\", {}]", 
        "fix_gamma": "0"
      }, 
      "inputs": []
    }, 
    {
      "op": "BatchNorm", 
      "name": "lvl3_1_restore_bn", 
      "attrs": {"fix_gamma": "0"}, 
      "inputs": [[429, 0, 0], [430, 0, 0], [431, 0, 0], [432, 0, 1], [433, 0, 1]]
    }, 
    {
      "op": "broadcast_add", 
      "name": "lvl3_1_block", 
      "inputs": [[411, 0, 0], [434, 0, 0]]
    }, 
    {
      "op": "null", 
      "name": "lvl3_2_expend_weight", 
      "attrs": {
        "kernel": "(1, 1)", 
        "no_bias": "1", 
        "num_filter": "960", 
        "pad": "(0, 0)", 
        "stride": "(1, 1)"
      }, 
      "inputs": []
    }, 
    {
      "op": "Convolution", 
      "name": "lvl3_2_expend", 
      "attrs": {
        "kernel": "(1, 1)", 
        "no_bias": "1", 
        "num_filter": "960", 
        "pad": "(0, 0)", 
        "stride": "(1, 1)"
      }, 
      "inputs": [[435, 0, 0], [436, 0, 0]]
    }, 
    {
      "op": "null", 
      "name": "lvl3_2_expend_bn_gamma", 
      "attrs": {"fix_gamma": "0"}, 
      "inputs": []
    }, 
    {
      "op": "null", 
      "name": "lvl3_2_expend_bn_beta", 
      "attrs": {"fix_gamma": "0"}, 
      "inputs": []
    }, 
    {
      "op": "null", 
      "name": "lvl3_2_expend_bn_moving_mean", 
      "attrs": {
        "__init__": "[\"zero\", {}]", 
        "fix_gamma": "0"
      }, 
      "inputs": []
    }, 
    {
      "op": "null", 
      "name": "lvl3_2_expend_bn_moving_var", 
      "attrs": {
        "__init__": "[\"one\", {}]", 
        "fix_gamma": "0"
      }, 
      "inputs": []
    }, 
    {
      "op": "BatchNorm", 
      "name": "lvl3_2_expend_bn", 
      "attrs": {"fix_gamma": "0"}, 
      "inputs": [[437, 0, 0], [438, 0, 0], [439, 0, 0], [440, 0, 1], [441, 0, 1]]
    }, 
    {
      "op": "LeakyReLU", 
      "name": "lvl3_2_expend_relu", 
      "attrs": {
        "act_type": "leaky", 
        "slope": "0.1"
      }, 
      "inputs": [[442, 0, 0]]
    }, 
    {
      "op": "null", 
      "name": "lvl3_2_dwise_weight", 
      "attrs": {
        "kernel": "(3, 3)", 
        "no_bias": "1", 
        "num_filter": "960", 
        "num_group": "960", 
        "pad": "(1, 1)", 
        "stride": "(1, 1)"
      }, 
      "inputs": []
    }, 
    {
      "op": "Convolution", 
      "name": "lvl3_2_dwise", 
      "attrs": {
        "kernel": "(3, 3)", 
        "no_bias": "1", 
        "num_filter": "960", 
        "num_group": "960", 
        "pad": "(1, 1)", 
        "stride": "(1, 1)"
      }, 
      "inputs": [[443, 0, 0], [444, 0, 0]]
    }, 
    {
      "op": "null", 
      "name": "lvl3_2_dwise_bn_gamma", 
      "attrs": {"fix_gamma": "0"}, 
      "inputs": []
    }, 
    {
      "op": "null", 
      "name": "lvl3_2_dwise_bn_beta", 
      "attrs": {"fix_gamma": "0"}, 
      "inputs": []
    }, 
    {
      "op": "null", 
      "name": "lvl3_2_dwise_bn_moving_mean", 
      "attrs": {
        "__init__": "[\"zero\", {}]", 
        "fix_gamma": "0"
      }, 
      "inputs": []
    }, 
    {
      "op": "null", 
      "name": "lvl3_2_dwise_bn_moving_var", 
      "attrs": {
        "__init__": "[\"one\", {}]", 
        "fix_gamma": "0"
      }, 
      "inputs": []
    }, 
    {
      "op": "BatchNorm", 
      "name": "lvl3_2_dwise_bn", 
      "attrs": {"fix_gamma": "0"}, 
      "inputs": [[445, 0, 0], [446, 0, 0], [447, 0, 0], [448, 0, 1], [449, 0, 1]]
    }, 
    {
      "op": "LeakyReLU", 
      "name": "lvl3_2_dwise_relu", 
      "attrs": {
        "act_type": "leaky", 
        "slope": "0.1"
      }, 
      "inputs": [[450, 0, 0]]
    }, 
    {
      "op": "null", 
      "name": "lvl3_2_restore_weight", 
      "attrs": {
        "kernel": "(1, 1)", 
        "no_bias": "1", 
        "num_filter": "320", 
        "pad": "(0, 0)", 
        "stride": "(1, 1)"
      }, 
      "inputs": []
    }, 
    {
      "op": "Convolution", 
      "name": "lvl3_2_restore", 
      "attrs": {
        "kernel": "(1, 1)", 
        "no_bias": "1", 
        "num_filter": "320", 
        "pad": "(0, 0)", 
        "stride": "(1, 1)"
      }, 
      "inputs": [[451, 0, 0], [452, 0, 0]]
    }, 
    {
      "op": "null", 
      "name": "lvl3_2_restore_bn_gamma", 
      "attrs": {"fix_gamma": "0"}, 
      "inputs": []
    }, 
    {
      "op": "null", 
      "name": "lvl3_2_restore_bn_beta", 
      "attrs": {"fix_gamma": "0"}, 
      "inputs": []
    }, 
    {
      "op": "null", 
      "name": "lvl3_2_restore_bn_moving_mean", 
      "attrs": {
        "__init__": "[\"zero\", {}]", 
        "fix_gamma": "0"
      }, 
      "inputs": []
    }, 
    {
      "op": "null", 
      "name": "lvl3_2_restore_bn_moving_var", 
      "attrs": {
        "__init__": "[\"one\", {}]", 
        "fix_gamma": "0"
      }, 
      "inputs": []
    }, 
    {
      "op": "BatchNorm", 
      "name": "lvl3_2_restore_bn", 
      "attrs": {"fix_gamma": "0"}, 
      "inputs": [[453, 0, 0], [454, 0, 0], [455, 0, 0], [456, 0, 1], [457, 0, 1]]
    }, 
    {
      "op": "broadcast_add", 
      "name": "lvl3_2_block", 
      "inputs": [[435, 0, 0], [458, 0, 0]]
    }, 
    {
      "op": "null", 
      "name": "lvl3_3_conv_weight", 
      "attrs": {
        "kernel": "(3, 3)", 
        "no_bias": "1", 
        "num_filter": "320", 
        "pad": "(1, 1)", 
        "stride": "(1, 1)"
      }, 
      "inputs": []
    }, 
    {
      "op": "Convolution", 
      "name": "lvl3_3_conv", 
      "attrs": {
        "kernel": "(3, 3)", 
        "no_bias": "1", 
        "num_filter": "320", 
        "pad": "(1, 1)", 
        "stride": "(1, 1)"
      }, 
      "inputs": [[459, 0, 0], [460, 0, 0]]
    }, 
    {
      "op": "null", 
      "name": "lvl3_3_bn_gamma", 
      "attrs": {"fix_gamma": "0"}, 
      "inputs": []
    }, 
    {
      "op": "null", 
      "name": "lvl3_3_bn_beta", 
      "attrs": {"fix_gamma": "0"}, 
      "inputs": []
    }, 
    {
      "op": "null", 
      "name": "lvl3_3_bn_moving_mean", 
      "attrs": {
        "__init__": "[\"zero\", {}]", 
        "fix_gamma": "0"
      }, 
      "inputs": []
    }, 
    {
      "op": "null", 
      "name": "lvl3_3_bn_moving_var", 
      "attrs": {
        "__init__": "[\"one\", {}]", 
        "fix_gamma": "0"
      }, 
      "inputs": []
    }, 
    {
      "op": "BatchNorm", 
      "name": "lvl3_3_bn", 
      "attrs": {"fix_gamma": "0"}, 
      "inputs": [[461, 0, 0], [462, 0, 0], [463, 0, 0], [464, 0, 1], [465, 0, 1]]
    }, 
    {
      "op": "LeakyReLU", 
      "name": "lvl3_3_relu", 
      "attrs": {
        "act_type": "leaky", 
        "slope": "0.1"
      }, 
      "inputs": [[466, 0, 0]]
    }, 
    {
      "op": "null", 
      "name": "lvl2_deconv_weight", 
      "attrs": {
        "kernel": "(2, 2)", 
        "no_bias": "1", 
        "num_filter": "160", 
        "pad": "(0, 0)", 
        "stride": "(2, 2)"
      }, 
      "inputs": []
    }, 
    {
      "op": "Deconvolution", 
      "name": "lvl2_deconv", 
      "attrs": {
        "kernel": "(2, 2)", 
        "no_bias": "1", 
        "num_filter": "160", 
        "pad": "(0, 0)", 
        "stride": "(2, 2)"
      }, 
      "inputs": [[467, 0, 0], [468, 0, 0]]
    }, 
    {
      "op": "null", 
      "name": "lvl2_deconv_bn_gamma", 
      "attrs": {"fix_gamma": "0"}, 
      "inputs": []
    }, 
    {
      "op": "null", 
      "name": "lvl2_deconv_bn_beta", 
      "attrs": {"fix_gamma": "0"}, 
      "inputs": []
    }, 
    {
      "op": "null", 
      "name": "lvl2_deconv_bn_moving_mean", 
      "attrs": {
        "__init__": "[\"zero\", {}]", 
        "fix_gamma": "0"
      }, 
      "inputs": []
    }, 
    {
      "op": "null", 
      "name": "lvl2_deconv_bn_moving_var", 
      "attrs": {
        "__init__": "[\"one\", {}]", 
        "fix_gamma": "0"
      }, 
      "inputs": []
    }, 
    {
      "op": "BatchNorm", 
      "name": "lvl2_deconv_bn", 
      "attrs": {"fix_gamma": "0"}, 
      "inputs": [[469, 0, 0], [470, 0, 0], [471, 0, 0], [472, 0, 1], [473, 0, 1]]
    }, 
    {
      "op": "LeakyReLU", 
      "name": "lvl2_deconv_relu", 
      "attrs": {
        "act_type": "leaky", 
        "slope": "0.1"
      }, 
      "inputs": [[474, 0, 0]]
    }, 
    {
      "op": "Concat", 
      "name": "lvl2_concat_map", 
      "attrs": {
        "dim": "1", 
        "num_args": "2"
      }, 
      "inputs": [[317, 0, 0], [475, 0, 0]]
    }, 
    {
      "op": "null", 
      "name": "lvl2_1_expend_weight", 
      "attrs": {
        "kernel": "(1, 1)", 
        "no_bias": "1", 
        "num_filter": "768", 
        "pad": "(0, 0)", 
        "stride": "(1, 1)"
      }, 
      "inputs": []
    }, 
    {
      "op": "Convolution", 
      "name": "lvl2_1_expend", 
      "attrs": {
        "kernel": "(1, 1)", 
        "no_bias": "1", 
        "num_filter": "768", 
        "pad": "(0, 0)", 
        "stride": "(1, 1)"
      }, 
      "inputs": [[476, 0, 0], [477, 0, 0]]
    }, 
    {
      "op": "null", 
      "name": "lvl2_1_expend_bn_gamma", 
      "attrs": {"fix_gamma": "0"}, 
      "inputs": []
    }, 
    {
      "op": "null", 
      "name": "lvl2_1_expend_bn_beta", 
      "attrs": {"fix_gamma": "0"}, 
      "inputs": []
    }, 
    {
      "op": "null", 
      "name": "lvl2_1_expend_bn_moving_mean", 
      "attrs": {
        "__init__": "[\"zero\", {}]", 
        "fix_gamma": "0"
      }, 
      "inputs": []
    }, 
    {
      "op": "null", 
      "name": "lvl2_1_expend_bn_moving_var", 
      "attrs": {
        "__init__": "[\"one\", {}]", 
        "fix_gamma": "0"
      }, 
      "inputs": []
    }, 
    {
      "op": "BatchNorm", 
      "name": "lvl2_1_expend_bn", 
      "attrs": {"fix_gamma": "0"}, 
      "inputs": [[478, 0, 0], [479, 0, 0], [480, 0, 0], [481, 0, 1], [482, 0, 1]]
    }, 
    {
      "op": "LeakyReLU", 
      "name": "lvl2_1_expend_relu", 
      "attrs": {
        "act_type": "leaky", 
        "slope": "0.1"
      }, 
      "inputs": [[483, 0, 0]]
    }, 
    {
      "op": "null", 
      "name": "lvl2_1_dwise_weight", 
      "attrs": {
        "kernel": "(3, 3)", 
        "no_bias": "1", 
        "num_filter": "768", 
        "num_group": "768", 
        "pad": "(1, 1)", 
        "stride": "(1, 1)"
      }, 
      "inputs": []
    }, 
    {
      "op": "Convolution", 
      "name": "lvl2_1_dwise", 
      "attrs": {
        "kernel": "(3, 3)", 
        "no_bias": "1", 
        "num_filter": "768", 
        "num_group": "768", 
        "pad": "(1, 1)", 
        "stride": "(1, 1)"
      }, 
      "inputs": [[484, 0, 0], [485, 0, 0]]
    }, 
    {
      "op": "null", 
      "name": "lvl2_1_dwise_bn_gamma", 
      "attrs": {"fix_gamma": "0"}, 
      "inputs": []
    }, 
    {
      "op": "null", 
      "name": "lvl2_1_dwise_bn_beta", 
      "attrs": {"fix_gamma": "0"}, 
      "inputs": []
    }, 
    {
      "op": "null", 
      "name": "lvl2_1_dwise_bn_moving_mean", 
      "attrs": {
        "__init__": "[\"zero\", {}]", 
        "fix_gamma": "0"
      }, 
      "inputs": []
    }, 
    {
      "op": "null", 
      "name": "lvl2_1_dwise_bn_moving_var", 
      "attrs": {
        "__init__": "[\"one\", {}]", 
        "fix_gamma": "0"
      }, 
      "inputs": []
    }, 
    {
      "op": "BatchNorm", 
      "name": "lvl2_1_dwise_bn", 
      "attrs": {"fix_gamma": "0"}, 
      "inputs": [[486, 0, 0], [487, 0, 0], [488, 0, 0], [489, 0, 1], [490, 0, 1]]
    }, 
    {
      "op": "LeakyReLU", 
      "name": "lvl2_1_dwise_relu", 
      "attrs": {
        "act_type": "leaky", 
        "slope": "0.1"
      }, 
      "inputs": [[491, 0, 0]]
    }, 
    {
      "op": "null", 
      "name": "lvl2_1_restore_weight", 
      "attrs": {
        "kernel": "(1, 1)", 
        "no_bias": "1", 
        "num_filter": "256", 
        "pad": "(0, 0)", 
        "stride": "(1, 1)"
      }, 
      "inputs": []
    }, 
    {
      "op": "Convolution", 
      "name": "lvl2_1_restore", 
      "attrs": {
        "kernel": "(1, 1)", 
        "no_bias": "1", 
        "num_filter": "256", 
        "pad": "(0, 0)", 
        "stride": "(1, 1)"
      }, 
      "inputs": [[492, 0, 0], [493, 0, 0]]
    }, 
    {
      "op": "null", 
      "name": "lvl2_1_restore_bn_gamma", 
      "attrs": {"fix_gamma": "0"}, 
      "inputs": []
    }, 
    {
      "op": "null", 
      "name": "lvl2_1_restore_bn_beta", 
      "attrs": {"fix_gamma": "0"}, 
      "inputs": []
    }, 
    {
      "op": "null", 
      "name": "lvl2_1_restore_bn_moving_mean", 
      "attrs": {
        "__init__": "[\"zero\", {}]", 
        "fix_gamma": "0"
      }, 
      "inputs": []
    }, 
    {
      "op": "null", 
      "name": "lvl2_1_restore_bn_moving_var", 
      "attrs": {
        "__init__": "[\"one\", {}]", 
        "fix_gamma": "0"
      }, 
      "inputs": []
    }, 
    {
      "op": "BatchNorm", 
      "name": "lvl2_1_restore_bn", 
      "attrs": {"fix_gamma": "0"}, 
      "inputs": [[494, 0, 0], [495, 0, 0], [496, 0, 0], [497, 0, 1], [498, 0, 1]]
    }, 
    {
      "op": "broadcast_add", 
      "name": "lvl2_1_block", 
      "inputs": [[476, 0, 0], [499, 0, 0]]
    }, 
    {
      "op": "null", 
      "name": "lvl2_2_expend_weight", 
      "attrs": {
        "kernel": "(1, 1)", 
        "no_bias": "1", 
        "num_filter": "768", 
        "pad": "(0, 0)", 
        "stride": "(1, 1)"
      }, 
      "inputs": []
    }, 
    {
      "op": "Convolution", 
      "name": "lvl2_2_expend", 
      "attrs": {
        "kernel": "(1, 1)", 
        "no_bias": "1", 
        "num_filter": "768", 
        "pad": "(0, 0)", 
        "stride": "(1, 1)"
      }, 
      "inputs": [[500, 0, 0], [501, 0, 0]]
    }, 
    {
      "op": "null", 
      "name": "lvl2_2_expend_bn_gamma", 
      "attrs": {"fix_gamma": "0"}, 
      "inputs": []
    }, 
    {
      "op": "null", 
      "name": "lvl2_2_expend_bn_beta", 
      "attrs": {"fix_gamma": "0"}, 
      "inputs": []
    }, 
    {
      "op": "null", 
      "name": "lvl2_2_expend_bn_moving_mean", 
      "attrs": {
        "__init__": "[\"zero\", {}]", 
        "fix_gamma": "0"
      }, 
      "inputs": []
    }, 
    {
      "op": "null", 
      "name": "lvl2_2_expend_bn_moving_var", 
      "attrs": {
        "__init__": "[\"one\", {}]", 
        "fix_gamma": "0"
      }, 
      "inputs": []
    }, 
    {
      "op": "BatchNorm", 
      "name": "lvl2_2_expend_bn", 
      "attrs": {"fix_gamma": "0"}, 
      "inputs": [[502, 0, 0], [503, 0, 0], [504, 0, 0], [505, 0, 1], [506, 0, 1]]
    }, 
    {
      "op": "LeakyReLU", 
      "name": "lvl2_2_expend_relu", 
      "attrs": {
        "act_type": "leaky", 
        "slope": "0.1"
      }, 
      "inputs": [[507, 0, 0]]
    }, 
    {
      "op": "null", 
      "name": "lvl2_2_dwise_weight", 
      "attrs": {
        "kernel": "(3, 3)", 
        "no_bias": "1", 
        "num_filter": "768", 
        "num_group": "768", 
        "pad": "(1, 1)", 
        "stride": "(1, 1)"
      }, 
      "inputs": []
    }, 
    {
      "op": "Convolution", 
      "name": "lvl2_2_dwise", 
      "attrs": {
        "kernel": "(3, 3)", 
        "no_bias": "1", 
        "num_filter": "768", 
        "num_group": "768", 
        "pad": "(1, 1)", 
        "stride": "(1, 1)"
      }, 
      "inputs": [[508, 0, 0], [509, 0, 0]]
    }, 
    {
      "op": "null", 
      "name": "lvl2_2_dwise_bn_gamma", 
      "attrs": {"fix_gamma": "0"}, 
      "inputs": []
    }, 
    {
      "op": "null", 
      "name": "lvl2_2_dwise_bn_beta", 
      "attrs": {"fix_gamma": "0"}, 
      "inputs": []
    }, 
    {
      "op": "null", 
      "name": "lvl2_2_dwise_bn_moving_mean", 
      "attrs": {
        "__init__": "[\"zero\", {}]", 
        "fix_gamma": "0"
      }, 
      "inputs": []
    }, 
    {
      "op": "null", 
      "name": "lvl2_2_dwise_bn_moving_var", 
      "attrs": {
        "__init__": "[\"one\", {}]", 
        "fix_gamma": "0"
      }, 
      "inputs": []
    }, 
    {
      "op": "BatchNorm", 
      "name": "lvl2_2_dwise_bn", 
      "attrs": {"fix_gamma": "0"}, 
      "inputs": [[510, 0, 0], [511, 0, 0], [512, 0, 0], [513, 0, 1], [514, 0, 1]]
    }, 
    {
      "op": "LeakyReLU", 
      "name": "lvl2_2_dwise_relu", 
      "attrs": {
        "act_type": "leaky", 
        "slope": "0.1"
      }, 
      "inputs": [[515, 0, 0]]
    }, 
    {
      "op": "null", 
      "name": "lvl2_2_restore_weight", 
      "attrs": {
        "kernel": "(1, 1)", 
        "no_bias": "1", 
        "num_filter": "256", 
        "pad": "(0, 0)", 
        "stride": "(1, 1)"
      }, 
      "inputs": []
    }, 
    {
      "op": "Convolution", 
      "name": "lvl2_2_restore", 
      "attrs": {
        "kernel": "(1, 1)", 
        "no_bias": "1", 
        "num_filter": "256", 
        "pad": "(0, 0)", 
        "stride": "(1, 1)"
      }, 
      "inputs": [[516, 0, 0], [517, 0, 0]]
    }, 
    {
      "op": "null", 
      "name": "lvl2_2_restore_bn_gamma", 
      "attrs": {"fix_gamma": "0"}, 
      "inputs": []
    }, 
    {
      "op": "null", 
      "name": "lvl2_2_restore_bn_beta", 
      "attrs": {"fix_gamma": "0"}, 
      "inputs": []
    }, 
    {
      "op": "null", 
      "name": "lvl2_2_restore_bn_moving_mean", 
      "attrs": {
        "__init__": "[\"zero\", {}]", 
        "fix_gamma": "0"
      }, 
      "inputs": []
    }, 
    {
      "op": "null", 
      "name": "lvl2_2_restore_bn_moving_var", 
      "attrs": {
        "__init__": "[\"one\", {}]", 
        "fix_gamma": "0"
      }, 
      "inputs": []
    }, 
    {
      "op": "BatchNorm", 
      "name": "lvl2_2_restore_bn", 
      "attrs": {"fix_gamma": "0"}, 
      "inputs": [[518, 0, 0], [519, 0, 0], [520, 0, 0], [521, 0, 1], [522, 0, 1]]
    }, 
    {
      "op": "broadcast_add", 
      "name": "lvl2_2_block", 
      "inputs": [[500, 0, 0], [523, 0, 0]]
    }, 
    {
      "op": "null", 
      "name": "lvl2_3_conv_weight", 
      "attrs": {
        "kernel": "(3, 3)", 
        "no_bias": "1", 
        "num_filter": "256", 
        "pad": "(1, 1)", 
        "stride": "(1, 1)"
      }, 
      "inputs": []
    }, 
    {
      "op": "Convolution", 
      "name": "lvl2_3_conv", 
      "attrs": {
        "kernel": "(3, 3)", 
        "no_bias": "1", 
        "num_filter": "256", 
        "pad": "(1, 1)", 
        "stride": "(1, 1)"
      }, 
      "inputs": [[524, 0, 0], [525, 0, 0]]
    }, 
    {
      "op": "null", 
      "name": "lvl2_3_bn_gamma", 
      "attrs": {"fix_gamma": "0"}, 
      "inputs": []
    }, 
    {
      "op": "null", 
      "name": "lvl2_3_bn_beta", 
      "attrs": {"fix_gamma": "0"}, 
      "inputs": []
    }, 
    {
      "op": "null", 
      "name": "lvl2_3_bn_moving_mean", 
      "attrs": {
        "__init__": "[\"zero\", {}]", 
        "fix_gamma": "0"
      }, 
      "inputs": []
    }, 
    {
      "op": "null", 
      "name": "lvl2_3_bn_moving_var", 
      "attrs": {
        "__init__": "[\"one\", {}]", 
        "fix_gamma": "0"
      }, 
      "inputs": []
    }, 
    {
      "op": "BatchNorm", 
      "name": "lvl2_3_bn", 
      "attrs": {"fix_gamma": "0"}, 
      "inputs": [[526, 0, 0], [527, 0, 0], [528, 0, 0], [529, 0, 1], [530, 0, 1]]
    }, 
    {
      "op": "LeakyReLU", 
      "name": "lvl2_3_relu", 
      "attrs": {
        "act_type": "leaky", 
        "slope": "0.1"
      }, 
      "inputs": [[531, 0, 0]]
    }, 
    {
      "op": "null", 
      "name": "lvl1_deconv_weight", 
      "attrs": {
        "kernel": "(2, 2)", 
        "no_bias": "1", 
        "num_filter": "128", 
        "pad": "(0, 0)", 
        "stride": "(2, 2)"
      }, 
      "inputs": []
    }, 
    {
      "op": "Deconvolution", 
      "name": "lvl1_deconv", 
      "attrs": {
        "kernel": "(2, 2)", 
        "no_bias": "1", 
        "num_filter": "128", 
        "pad": "(0, 0)", 
        "stride": "(2, 2)"
      }, 
      "inputs": [[532, 0, 0], [533, 0, 0]]
    }, 
    {
      "op": "null", 
      "name": "lvl1_deconv_bn_gamma", 
      "attrs": {"fix_gamma": "0"}, 
      "inputs": []
    }, 
    {
      "op": "null", 
      "name": "lvl1_deconv_bn_beta", 
      "attrs": {"fix_gamma": "0"}, 
      "inputs": []
    }, 
    {
      "op": "null", 
      "name": "lvl1_deconv_bn_moving_mean", 
      "attrs": {
        "__init__": "[\"zero\", {}]", 
        "fix_gamma": "0"
      }, 
      "inputs": []
    }, 
    {
      "op": "null", 
      "name": "lvl1_deconv_bn_moving_var", 
      "attrs": {
        "__init__": "[\"one\", {}]", 
        "fix_gamma": "0"
      }, 
      "inputs": []
    }, 
    {
      "op": "BatchNorm", 
      "name": "lvl1_deconv_bn", 
      "attrs": {"fix_gamma": "0"}, 
      "inputs": [[534, 0, 0], [535, 0, 0], [536, 0, 0], [537, 0, 1], [538, 0, 1]]
    }, 
    {
      "op": "LeakyReLU", 
      "name": "lvl1_deconv_relu", 
      "attrs": {
        "act_type": "leaky", 
        "slope": "0.1"
      }, 
      "inputs": [[539, 0, 0]]
    }, 
    {
      "op": "Concat", 
      "name": "lvl1_concat_map", 
      "attrs": {
        "dim": "1", 
        "num_args": "2"
      }, 
      "inputs": [[246, 0, 0], [540, 0, 0]]
    }, 
    {
      "op": "null", 
      "name": "lvl1_1_expend_weight", 
      "attrs": {
        "kernel": "(1, 1)", 
        "no_bias": "1", 
        "num_filter": "576", 
        "pad": "(0, 0)", 
        "stride": "(1, 1)"
      }, 
      "inputs": []
    }, 
    {
      "op": "Convolution", 
      "name": "lvl1_1_expend", 
      "attrs": {
        "kernel": "(1, 1)", 
        "no_bias": "1", 
        "num_filter": "576", 
        "pad": "(0, 0)", 
        "stride": "(1, 1)"
      }, 
      "inputs": [[541, 0, 0], [542, 0, 0]]
    }, 
    {
      "op": "null", 
      "name": "lvl1_1_expend_bn_gamma", 
      "attrs": {"fix_gamma": "0"}, 
      "inputs": []
    }, 
    {
      "op": "null", 
      "name": "lvl1_1_expend_bn_beta", 
      "attrs": {"fix_gamma": "0"}, 
      "inputs": []
    }, 
    {
      "op": "null", 
      "name": "lvl1_1_expend_bn_moving_mean", 
      "attrs": {
        "__init__": "[\"zero\", {}]", 
        "fix_gamma": "0"
      }, 
      "inputs": []
    }, 
    {
      "op": "null", 
      "name": "lvl1_1_expend_bn_moving_var", 
      "attrs": {
        "__init__": "[\"one\", {}]", 
        "fix_gamma": "0"
      }, 
      "inputs": []
    }, 
    {
      "op": "BatchNorm", 
      "name": "lvl1_1_expend_bn", 
      "attrs": {"fix_gamma": "0"}, 
      "inputs": [[543, 0, 0], [544, 0, 0], [545, 0, 0], [546, 0, 1], [547, 0, 1]]
    }, 
    {
      "op": "LeakyReLU", 
      "name": "lvl1_1_expend_relu", 
      "attrs": {
        "act_type": "leaky", 
        "slope": "0.1"
      }, 
      "inputs": [[548, 0, 0]]
    }, 
    {
      "op": "null", 
      "name": "lvl1_1_dwise_weight", 
      "attrs": {
        "kernel": "(3, 3)", 
        "no_bias": "1", 
        "num_filter": "576", 
        "num_group": "576", 
        "pad": "(1, 1)", 
        "stride": "(1, 1)"
      }, 
      "inputs": []
    }, 
    {
      "op": "Convolution", 
      "name": "lvl1_1_dwise", 
      "attrs": {
        "kernel": "(3, 3)", 
        "no_bias": "1", 
        "num_filter": "576", 
        "num_group": "576", 
        "pad": "(1, 1)", 
        "stride": "(1, 1)"
      }, 
      "inputs": [[549, 0, 0], [550, 0, 0]]
    }, 
    {
      "op": "null", 
      "name": "lvl1_1_dwise_bn_gamma", 
      "attrs": {"fix_gamma": "0"}, 
      "inputs": []
    }, 
    {
      "op": "null", 
      "name": "lvl1_1_dwise_bn_beta", 
      "attrs": {"fix_gamma": "0"}, 
      "inputs": []
    }, 
    {
      "op": "null", 
      "name": "lvl1_1_dwise_bn_moving_mean", 
      "attrs": {
        "__init__": "[\"zero\", {}]", 
        "fix_gamma": "0"
      }, 
      "inputs": []
    }, 
    {
      "op": "null", 
      "name": "lvl1_1_dwise_bn_moving_var", 
      "attrs": {
        "__init__": "[\"one\", {}]", 
        "fix_gamma": "0"
      }, 
      "inputs": []
    }, 
    {
      "op": "BatchNorm", 
      "name": "lvl1_1_dwise_bn", 
      "attrs": {"fix_gamma": "0"}, 
      "inputs": [[551, 0, 0], [552, 0, 0], [553, 0, 0], [554, 0, 1], [555, 0, 1]]
    }, 
    {
      "op": "LeakyReLU", 
      "name": "lvl1_1_dwise_relu", 
      "attrs": {
        "act_type": "leaky", 
        "slope": "0.1"
      }, 
      "inputs": [[556, 0, 0]]
    }, 
    {
      "op": "null", 
      "name": "lvl1_1_restore_weight", 
      "attrs": {
        "kernel": "(1, 1)", 
        "no_bias": "1", 
        "num_filter": "192", 
        "pad": "(0, 0)", 
        "stride": "(1, 1)"
      }, 
      "inputs": []
    }, 
    {
      "op": "Convolution", 
      "name": "lvl1_1_restore", 
      "attrs": {
        "kernel": "(1, 1)", 
        "no_bias": "1", 
        "num_filter": "192", 
        "pad": "(0, 0)", 
        "stride": "(1, 1)"
      }, 
      "inputs": [[557, 0, 0], [558, 0, 0]]
    }, 
    {
      "op": "null", 
      "name": "lvl1_1_restore_bn_gamma", 
      "attrs": {"fix_gamma": "0"}, 
      "inputs": []
    }, 
    {
      "op": "null", 
      "name": "lvl1_1_restore_bn_beta", 
      "attrs": {"fix_gamma": "0"}, 
      "inputs": []
    }, 
    {
      "op": "null", 
      "name": "lvl1_1_restore_bn_moving_mean", 
      "attrs": {
        "__init__": "[\"zero\", {}]", 
        "fix_gamma": "0"
      }, 
      "inputs": []
    }, 
    {
      "op": "null", 
      "name": "lvl1_1_restore_bn_moving_var", 
      "attrs": {
        "__init__": "[\"one\", {}]", 
        "fix_gamma": "0"
      }, 
      "inputs": []
    }, 
    {
      "op": "BatchNorm", 
      "name": "lvl1_1_restore_bn", 
      "attrs": {"fix_gamma": "0"}, 
      "inputs": [[559, 0, 0], [560, 0, 0], [561, 0, 0], [562, 0, 1], [563, 0, 1]]
    }, 
    {
      "op": "broadcast_add", 
      "name": "lvl1_1_block", 
      "inputs": [[541, 0, 0], [564, 0, 0]]
    }, 
    {
      "op": "null", 
      "name": "lvl1_2_expend_weight", 
      "attrs": {
        "kernel": "(1, 1)", 
        "no_bias": "1", 
        "num_filter": "576", 
        "pad": "(0, 0)", 
        "stride": "(1, 1)"
      }, 
      "inputs": []
    }, 
    {
      "op": "Convolution", 
      "name": "lvl1_2_expend", 
      "attrs": {
        "kernel": "(1, 1)", 
        "no_bias": "1", 
        "num_filter": "576", 
        "pad": "(0, 0)", 
        "stride": "(1, 1)"
      }, 
      "inputs": [[565, 0, 0], [566, 0, 0]]
    }, 
    {
      "op": "null", 
      "name": "lvl1_2_expend_bn_gamma", 
      "attrs": {"fix_gamma": "0"}, 
      "inputs": []
    }, 
    {
      "op": "null", 
      "name": "lvl1_2_expend_bn_beta", 
      "attrs": {"fix_gamma": "0"}, 
      "inputs": []
    }, 
    {
      "op": "null", 
      "name": "lvl1_2_expend_bn_moving_mean", 
      "attrs": {
        "__init__": "[\"zero\", {}]", 
        "fix_gamma": "0"
      }, 
      "inputs": []
    }, 
    {
      "op": "null", 
      "name": "lvl1_2_expend_bn_moving_var", 
      "attrs": {
        "__init__": "[\"one\", {}]", 
        "fix_gamma": "0"
      }, 
      "inputs": []
    }, 
    {
      "op": "BatchNorm", 
      "name": "lvl1_2_expend_bn", 
      "attrs": {"fix_gamma": "0"}, 
      "inputs": [[567, 0, 0], [568, 0, 0], [569, 0, 0], [570, 0, 1], [571, 0, 1]]
    }, 
    {
      "op": "LeakyReLU", 
      "name": "lvl1_2_expend_relu", 
      "attrs": {
        "act_type": "leaky", 
        "slope": "0.1"
      }, 
      "inputs": [[572, 0, 0]]
    }, 
    {
      "op": "null", 
      "name": "lvl1_2_dwise_weight", 
      "attrs": {
        "kernel": "(3, 3)", 
        "no_bias": "1", 
        "num_filter": "576", 
        "num_group": "576", 
        "pad": "(1, 1)", 
        "stride": "(1, 1)"
      }, 
      "inputs": []
    }, 
    {
      "op": "Convolution", 
      "name": "lvl1_2_dwise", 
      "attrs": {
        "kernel": "(3, 3)", 
        "no_bias": "1", 
        "num_filter": "576", 
        "num_group": "576", 
        "pad": "(1, 1)", 
        "stride": "(1, 1)"
      }, 
      "inputs": [[573, 0, 0], [574, 0, 0]]
    }, 
    {
      "op": "null", 
      "name": "lvl1_2_dwise_bn_gamma", 
      "attrs": {"fix_gamma": "0"}, 
      "inputs": []
    }, 
    {
      "op": "null", 
      "name": "lvl1_2_dwise_bn_beta", 
      "attrs": {"fix_gamma": "0"}, 
      "inputs": []
    }, 
    {
      "op": "null", 
      "name": "lvl1_2_dwise_bn_moving_mean", 
      "attrs": {
        "__init__": "[\"zero\", {}]", 
        "fix_gamma": "0"
      }, 
      "inputs": []
    }, 
    {
      "op": "null", 
      "name": "lvl1_2_dwise_bn_moving_var", 
      "attrs": {
        "__init__": "[\"one\", {}]", 
        "fix_gamma": "0"
      }, 
      "inputs": []
    }, 
    {
      "op": "BatchNorm", 
      "name": "lvl1_2_dwise_bn", 
      "attrs": {"fix_gamma": "0"}, 
      "inputs": [[575, 0, 0], [576, 0, 0], [577, 0, 0], [578, 0, 1], [579, 0, 1]]
    }, 
    {
      "op": "LeakyReLU", 
      "name": "lvl1_2_dwise_relu", 
      "attrs": {
        "act_type": "leaky", 
        "slope": "0.1"
      }, 
      "inputs": [[580, 0, 0]]
    }, 
    {
      "op": "null", 
      "name": "lvl1_2_restore_weight", 
      "attrs": {
        "kernel": "(1, 1)", 
        "no_bias": "1", 
        "num_filter": "192", 
        "pad": "(0, 0)", 
        "stride": "(1, 1)"
      }, 
      "inputs": []
    }, 
    {
      "op": "Convolution", 
      "name": "lvl1_2_restore", 
      "attrs": {
        "kernel": "(1, 1)", 
        "no_bias": "1", 
        "num_filter": "192", 
        "pad": "(0, 0)", 
        "stride": "(1, 1)"
      }, 
      "inputs": [[581, 0, 0], [582, 0, 0]]
    }, 
    {
      "op": "null", 
      "name": "lvl1_2_restore_bn_gamma", 
      "attrs": {"fix_gamma": "0"}, 
      "inputs": []
    }, 
    {
      "op": "null", 
      "name": "lvl1_2_restore_bn_beta", 
      "attrs": {"fix_gamma": "0"}, 
      "inputs": []
    }, 
    {
      "op": "null", 
      "name": "lvl1_2_restore_bn_moving_mean", 
      "attrs": {
        "__init__": "[\"zero\", {}]", 
        "fix_gamma": "0"
      }, 
      "inputs": []
    }, 
    {
      "op": "null", 
      "name": "lvl1_2_restore_bn_moving_var", 
      "attrs": {
        "__init__": "[\"one\", {}]", 
        "fix_gamma": "0"
      }, 
      "inputs": []
    }, 
    {
      "op": "BatchNorm", 
      "name": "lvl1_2_restore_bn", 
      "attrs": {"fix_gamma": "0"}, 
      "inputs": [[583, 0, 0], [584, 0, 0], [585, 0, 0], [586, 0, 1], [587, 0, 1]]
    }, 
    {
      "op": "broadcast_add", 
      "name": "lvl1_2_block", 
      "inputs": [[565, 0, 0], [588, 0, 0]]
    }, 
    {
      "op": "null", 
      "name": "lvl1_3_conv_weight", 
      "attrs": {
        "kernel": "(3, 3)", 
        "no_bias": "1", 
        "num_filter": "192", 
        "pad": "(1, 1)", 
        "stride": "(1, 1)"
      }, 
      "inputs": []
    }, 
    {
      "op": "Convolution", 
      "name": "lvl1_3_conv", 
      "attrs": {
        "kernel": "(3, 3)", 
        "no_bias": "1", 
        "num_filter": "192", 
        "pad": "(1, 1)", 
        "stride": "(1, 1)"
      }, 
      "inputs": [[589, 0, 0], [590, 0, 0]]
    }, 
    {
      "op": "null", 
      "name": "lvl1_3_bn_gamma", 
      "attrs": {"fix_gamma": "0"}, 
      "inputs": []
    }, 
    {
      "op": "null", 
      "name": "lvl1_3_bn_beta", 
      "attrs": {"fix_gamma": "0"}, 
      "inputs": []
    }, 
    {
      "op": "null", 
      "name": "lvl1_3_bn_moving_mean", 
      "attrs": {
        "__init__": "[\"zero\", {}]", 
        "fix_gamma": "0"
      }, 
      "inputs": []
    }, 
    {
      "op": "null", 
      "name": "lvl1_3_bn_moving_var", 
      "attrs": {
        "__init__": "[\"one\", {}]", 
        "fix_gamma": "0"
      }, 
      "inputs": []
    }, 
    {
      "op": "BatchNorm", 
      "name": "lvl1_3_bn", 
      "attrs": {"fix_gamma": "0"}, 
      "inputs": [[591, 0, 0], [592, 0, 0], [593, 0, 0], [594, 0, 1], [595, 0, 1]]
    }, 
    {
      "op": "LeakyReLU", 
      "name": "lvl1_3_relu", 
      "attrs": {
        "act_type": "leaky", 
        "slope": "0.1"
      }, 
      "inputs": [[596, 0, 0]]
    }, 
    {
      "op": "Dropout", 
      "name": "lvl1_drop", 
      "attrs": {"p": "0.2"}, 
      "inputs": [[597, 0, 0]]
    }, 
    {
      "op": "null", 
      "name": "lvl1_linearmap_weight", 
      "attrs": {
        "kernel": "(1, 1)", 
        "no_bias": "0", 
        "num_filter": "75", 
        "pad": "(0, 0)", 
        "stride": "(1, 1)"
      }, 
      "inputs": []
    }, 
    {
      "op": "null", 
      "name": "lvl1_linearmap_bias", 
      "attrs": {
        "kernel": "(1, 1)", 
        "no_bias": "0", 
        "num_filter": "75", 
        "pad": "(0, 0)", 
        "stride": "(1, 1)"
      }, 
      "inputs": []
    }, 
    {
      "op": "Convolution", 
      "name": "lvl1_linearmap", 
      "attrs": {
        "kernel": "(1, 1)", 
        "no_bias": "0", 
        "num_filter": "75", 
        "pad": "(0, 0)", 
        "stride": "(1, 1)"
      }, 
      "inputs": [[598, 0, 0], [599, 0, 0], [600, 0, 0]]
    }, 
    {
      "op": "SliceChannel", 
      "name": "lvl1_inter_split", 
      "attrs": {
        "axis": "1", 
        "num_outputs": "75", 
        "squeeze_axis": "0"
      }, 
      "inputs": [[601, 0, 0]]
    }, 
    {
      "op": "Activation", 
      "name": "lvl1_yolomap_1", 
      "attrs": {"act_type": "sigmoid"}, 
      "inputs": [[602, 0, 0]]
    }, 
    {
      "op": "Activation", 
      "name": "lvl1_yolomap_2", 
      "attrs": {"act_type": "sigmoid"}, 
      "inputs": [[602, 1, 0]]
    }, 
    {
      "op": "Activation", 
      "name": "lvl1_yolomap_3", 
      "attrs": {"act_type": "sigmoid"}, 
      "inputs": [[602, 2, 0]]
    }, 
    {
      "op": "Activation", 
      "name": "lvl1_yolomap_4", 
      "attrs": {"act_type": "sigmoid"}, 
      "inputs": [[602, 3, 0]]
    }, 
    {
      "op": "Activation", 
      "name": "lvl1_yolomap_5", 
      "attrs": {"act_type": "sigmoid"}, 
      "inputs": [[602, 4, 0]]
    }, 
    {
      "op": "Activation", 
      "name": "lvl1_yolomap_6", 
      "attrs": {"act_type": "sigmoid"}, 
      "inputs": [[602, 5, 0]]
    }, 
    {
      "op": "Activation", 
      "name": "lvl1_yolomap_7", 
      "attrs": {"act_type": "sigmoid"}, 
      "inputs": [[602, 6, 0]]
    }, 
    {
      "op": "Activation", 
      "name": "lvl1_yolomap_8", 
      "attrs": {"act_type": "sigmoid"}, 
      "inputs": [[602, 7, 0]]
    }, 
    {
      "op": "Activation", 
      "name": "lvl1_yolomap_9", 
      "attrs": {"act_type": "sigmoid"}, 
      "inputs": [[602, 8, 0]]
    }, 
    {
      "op": "Activation", 
      "name": "lvl1_yolomap_10", 
      "attrs": {"act_type": "sigmoid"}, 
      "inputs": [[602, 9, 0]]
    }, 
    {
      "op": "Activation", 
      "name": "lvl1_yolomap_11", 
      "attrs": {"act_type": "sigmoid"}, 
      "inputs": [[602, 10, 0]]
    }, 
    {
      "op": "Activation", 
      "name": "lvl1_yolomap_12", 
      "attrs": {"act_type": "sigmoid"}, 
      "inputs": [[602, 11, 0]]
    }, 
    {
      "op": "Activation", 
      "name": "lvl1_yolomap_13", 
      "attrs": {"act_type": "sigmoid"}, 
      "inputs": [[602, 12, 0]]
    }, 
    {
      "op": "Activation", 
      "name": "lvl1_yolomap_14", 
      "attrs": {"act_type": "sigmoid"}, 
      "inputs": [[602, 13, 0]]
    }, 
    {
      "op": "Activation", 
      "name": "lvl1_yolomap_15", 
      "attrs": {"act_type": "sigmoid"}, 
      "inputs": [[602, 14, 0]]
    }, 
    {
      "op": "Activation", 
      "name": "lvl1_yolomap_16", 
      "attrs": {"act_type": "sigmoid"}, 
      "inputs": [[602, 15, 0]]
    }, 
    {
      "op": "Activation", 
      "name": "lvl1_yolomap_17", 
      "attrs": {"act_type": "sigmoid"}, 
      "inputs": [[602, 16, 0]]
    }, 
    {
      "op": "Activation", 
      "name": "lvl1_yolomap_18", 
      "attrs": {"act_type": "sigmoid"}, 
      "inputs": [[602, 17, 0]]
    }, 
    {
      "op": "Activation", 
      "name": "lvl1_yolomap_19", 
      "attrs": {"act_type": "sigmoid"}, 
      "inputs": [[602, 18, 0]]
    }, 
    {
      "op": "Activation", 
      "name": "lvl1_yolomap_20", 
      "attrs": {"act_type": "sigmoid"}, 
      "inputs": [[602, 19, 0]]
    }, 
    {
      "op": "Activation", 
      "name": "lvl1_yolomap_21", 
      "attrs": {"act_type": "sigmoid"}, 
      "inputs": [[602, 20, 0]]
    }, 
    {
      "op": "Activation", 
      "name": "lvl1_yolomap_22", 
      "attrs": {"act_type": "sigmoid"}, 
      "inputs": [[602, 21, 0]]
    }, 
    {
      "op": "Activation", 
      "name": "lvl1_yolomap_23", 
      "attrs": {"act_type": "sigmoid"}, 
      "inputs": [[602, 22, 0]]
    }, 
    {
      "op": "Activation", 
      "name": "lvl1_yolomap_24", 
      "attrs": {"act_type": "sigmoid"}, 
      "inputs": [[602, 23, 0]]
    }, 
    {
      "op": "Activation", 
      "name": "lvl1_yolomap_25", 
      "attrs": {"act_type": "sigmoid"}, 
      "inputs": [[602, 24, 0]]
    }, 
    {
      "op": "Activation", 
      "name": "lvl1_yolomap_26", 
      "attrs": {"act_type": "sigmoid"}, 
      "inputs": [[602, 25, 0]]
    }, 
    {
      "op": "Activation", 
      "name": "lvl1_yolomap_27", 
      "attrs": {"act_type": "sigmoid"}, 
      "inputs": [[602, 26, 0]]
    }, 
    {
      "op": "Activation", 
      "name": "lvl1_yolomap_28", 
      "attrs": {"act_type": "sigmoid"}, 
      "inputs": [[602, 27, 0]]
    }, 
    {
      "op": "Activation", 
      "name": "lvl1_yolomap_29", 
      "attrs": {"act_type": "sigmoid"}, 
      "inputs": [[602, 28, 0]]
    }, 
    {
      "op": "Activation", 
      "name": "lvl1_yolomap_30", 
      "attrs": {"act_type": "sigmoid"}, 
      "inputs": [[602, 29, 0]]
    }, 
    {
      "op": "Activation", 
      "name": "lvl1_yolomap_31", 
      "attrs": {"act_type": "sigmoid"}, 
      "inputs": [[602, 30, 0]]
    }, 
    {
      "op": "Activation", 
      "name": "lvl1_yolomap_32", 
      "attrs": {"act_type": "sigmoid"}, 
      "inputs": [[602, 31, 0]]
    }, 
    {
      "op": "Activation", 
      "name": "lvl1_yolomap_33", 
      "attrs": {"act_type": "sigmoid"}, 
      "inputs": [[602, 32, 0]]
    }, 
    {
      "op": "Activation", 
      "name": "lvl1_yolomap_34", 
      "attrs": {"act_type": "sigmoid"}, 
      "inputs": [[602, 33, 0]]
    }, 
    {
      "op": "Activation", 
      "name": "lvl1_yolomap_35", 
      "attrs": {"act_type": "sigmoid"}, 
      "inputs": [[602, 34, 0]]
    }, 
    {
      "op": "Activation", 
      "name": "lvl1_yolomap_36", 
      "attrs": {"act_type": "sigmoid"}, 
      "inputs": [[602, 35, 0]]
    }, 
    {
      "op": "Activation", 
      "name": "lvl1_yolomap_37", 
      "attrs": {"act_type": "sigmoid"}, 
      "inputs": [[602, 36, 0]]
    }, 
    {
      "op": "Activation", 
      "name": "lvl1_yolomap_38", 
      "attrs": {"act_type": "sigmoid"}, 
      "inputs": [[602, 37, 0]]
    }, 
    {
      "op": "Activation", 
      "name": "lvl1_yolomap_39", 
      "attrs": {"act_type": "sigmoid"}, 
      "inputs": [[602, 38, 0]]
    }, 
    {
      "op": "Activation", 
      "name": "lvl1_yolomap_40", 
      "attrs": {"act_type": "sigmoid"}, 
      "inputs": [[602, 39, 0]]
    }, 
    {
      "op": "Activation", 
      "name": "lvl1_yolomap_41", 
      "attrs": {"act_type": "sigmoid"}, 
      "inputs": [[602, 40, 0]]
    }, 
    {
      "op": "Activation", 
      "name": "lvl1_yolomap_42", 
      "attrs": {"act_type": "sigmoid"}, 
      "inputs": [[602, 41, 0]]
    }, 
    {
      "op": "Activation", 
      "name": "lvl1_yolomap_43", 
      "attrs": {"act_type": "sigmoid"}, 
      "inputs": [[602, 42, 0]]
    }, 
    {
      "op": "Activation", 
      "name": "lvl1_yolomap_44", 
      "attrs": {"act_type": "sigmoid"}, 
      "inputs": [[602, 43, 0]]
    }, 
    {
      "op": "Activation", 
      "name": "lvl1_yolomap_45", 
      "attrs": {"act_type": "sigmoid"}, 
      "inputs": [[602, 44, 0]]
    }, 
    {
      "op": "Activation", 
      "name": "lvl1_yolomap_46", 
      "attrs": {"act_type": "sigmoid"}, 
      "inputs": [[602, 45, 0]]
    }, 
    {
      "op": "Activation", 
      "name": "lvl1_yolomap_47", 
      "attrs": {"act_type": "sigmoid"}, 
      "inputs": [[602, 46, 0]]
    }, 
    {
      "op": "Activation", 
      "name": "lvl1_yolomap_48", 
      "attrs": {"act_type": "sigmoid"}, 
      "inputs": [[602, 47, 0]]
    }, 
    {
      "op": "Activation", 
      "name": "lvl1_yolomap_49", 
      "attrs": {"act_type": "sigmoid"}, 
      "inputs": [[602, 48, 0]]
    }, 
    {
      "op": "Activation", 
      "name": "lvl1_yolomap_50", 
      "attrs": {"act_type": "sigmoid"}, 
      "inputs": [[602, 49, 0]]
    }, 
    {
      "op": "Activation", 
      "name": "lvl1_yolomap_51", 
      "attrs": {"act_type": "sigmoid"}, 
      "inputs": [[602, 50, 0]]
    }, 
    {
      "op": "Activation", 
      "name": "lvl1_yolomap_52", 
      "attrs": {"act_type": "sigmoid"}, 
      "inputs": [[602, 51, 0]]
    }, 
    {
      "op": "Activation", 
      "name": "lvl1_yolomap_53", 
      "attrs": {"act_type": "sigmoid"}, 
      "inputs": [[602, 52, 0]]
    }, 
    {
      "op": "Activation", 
      "name": "lvl1_yolomap_54", 
      "attrs": {"act_type": "sigmoid"}, 
      "inputs": [[602, 53, 0]]
    }, 
    {
      "op": "Activation", 
      "name": "lvl1_yolomap_55", 
      "attrs": {"act_type": "sigmoid"}, 
      "inputs": [[602, 54, 0]]
    }, 
    {
      "op": "Activation", 
      "name": "lvl1_yolomap_56", 
      "attrs": {"act_type": "sigmoid"}, 
      "inputs": [[602, 55, 0]]
    }, 
    {
      "op": "Activation", 
      "name": "lvl1_yolomap_57", 
      "attrs": {"act_type": "sigmoid"}, 
      "inputs": [[602, 56, 0]]
    }, 
    {
      "op": "Activation", 
      "name": "lvl1_yolomap_58", 
      "attrs": {"act_type": "sigmoid"}, 
      "inputs": [[602, 57, 0]]
    }, 
    {
      "op": "Activation", 
      "name": "lvl1_yolomap_59", 
      "attrs": {"act_type": "sigmoid"}, 
      "inputs": [[602, 58, 0]]
    }, 
    {
      "op": "Activation", 
      "name": "lvl1_yolomap_60", 
      "attrs": {"act_type": "sigmoid"}, 
      "inputs": [[602, 59, 0]]
    }, 
    {
      "op": "Activation", 
      "name": "lvl1_yolomap_61", 
      "attrs": {"act_type": "sigmoid"}, 
      "inputs": [[602, 60, 0]]
    }, 
    {
      "op": "Activation", 
      "name": "lvl1_yolomap_62", 
      "attrs": {"act_type": "sigmoid"}, 
      "inputs": [[602, 61, 0]]
    }, 
    {
      "op": "Activation", 
      "name": "lvl1_yolomap_63", 
      "attrs": {"act_type": "sigmoid"}, 
      "inputs": [[602, 62, 0]]
    }, 
    {
      "op": "Activation", 
      "name": "lvl1_yolomap_64", 
      "attrs": {"act_type": "sigmoid"}, 
      "inputs": [[602, 63, 0]]
    }, 
    {
      "op": "Activation", 
      "name": "lvl1_yolomap_65", 
      "attrs": {"act_type": "sigmoid"}, 
      "inputs": [[602, 64, 0]]
    }, 
    {
      "op": "Activation", 
      "name": "lvl1_yolomap_66", 
      "attrs": {"act_type": "sigmoid"}, 
      "inputs": [[602, 65, 0]]
    }, 
    {
      "op": "Activation", 
      "name": "lvl1_yolomap_67", 
      "attrs": {"act_type": "sigmoid"}, 
      "inputs": [[602, 66, 0]]
    }, 
    {
      "op": "Activation", 
      "name": "lvl1_yolomap_68", 
      "attrs": {"act_type": "sigmoid"}, 
      "inputs": [[602, 67, 0]]
    }, 
    {
      "op": "Activation", 
      "name": "lvl1_yolomap_69", 
      "attrs": {"act_type": "sigmoid"}, 
      "inputs": [[602, 68, 0]]
    }, 
    {
      "op": "Activation", 
      "name": "lvl1_yolomap_70", 
      "attrs": {"act_type": "sigmoid"}, 
      "inputs": [[602, 69, 0]]
    }, 
    {
      "op": "Activation", 
      "name": "lvl1_yolomap_71", 
      "attrs": {"act_type": "sigmoid"}, 
      "inputs": [[602, 70, 0]]
    }, 
    {
      "op": "Activation", 
      "name": "lvl1_yolomap_72", 
      "attrs": {"act_type": "sigmoid"}, 
      "inputs": [[602, 71, 0]]
    }, 
    {
      "op": "Activation", 
      "name": "lvl1_yolomap_73", 
      "attrs": {"act_type": "sigmoid"}, 
      "inputs": [[602, 72, 0]]
    }, 
    {
      "op": "Activation", 
      "name": "lvl1_yolomap_74", 
      "attrs": {"act_type": "sigmoid"}, 
      "inputs": [[602, 73, 0]]
    }, 
    {
      "op": "Activation", 
      "name": "lvl1_yolomap_75", 
      "attrs": {"act_type": "sigmoid"}, 
      "inputs": [[602, 74, 0]]
    }, 
    {
      "op": "Concat", 
      "name": "lvl1_yolomap", 
      "attrs": {
        "dim": "1", 
        "num_args": "75"
      }, 
      "inputs": [
        [603, 0, 0], 
        [604, 0, 0], 
        [605, 0, 0], 
        [606, 0, 0], 
        [607, 0, 0], 
        [608, 0, 0], 
        [609, 0, 0], 
        [610, 0, 0], 
        [611, 0, 0], 
        [612, 0, 0], 
        [613, 0, 0], 
        [614, 0, 0], 
        [615, 0, 0], 
        [616, 0, 0], 
        [617, 0, 0], 
        [618, 0, 0], 
        [619, 0, 0], 
        [620, 0, 0], 
        [621, 0, 0], 
        [622, 0, 0], 
        [623, 0, 0], 
        [624, 0, 0], 
        [625, 0, 0], 
        [626, 0, 0], 
        [627, 0, 0], 
        [628, 0, 0], 
        [629, 0, 0], 
        [630, 0, 0], 
        [631, 0, 0], 
        [632, 0, 0], 
        [633, 0, 0], 
        [634, 0, 0], 
        [635, 0, 0], 
        [636, 0, 0], 
        [637, 0, 0], 
        [638, 0, 0], 
        [639, 0, 0], 
        [640, 0, 0], 
        [641, 0, 0], 
        [642, 0, 0], 
        [643, 0, 0], 
        [644, 0, 0], 
        [645, 0, 0], 
        [646, 0, 0], 
        [647, 0, 0], 
        [648, 0, 0], 
        [649, 0, 0], 
        [650, 0, 0], 
        [651, 0, 0], 
        [652, 0, 0], 
        [653, 0, 0], 
        [654, 0, 0], 
        [655, 0, 0], 
        [656, 0, 0], 
        [657, 0, 0], 
        [658, 0, 0], 
        [659, 0, 0], 
        [660, 0, 0], 
        [661, 0, 0], 
        [662, 0, 0], 
        [663, 0, 0], 
        [664, 0, 0], 
        [665, 0, 0], 
        [666, 0, 0], 
        [667, 0, 0], 
        [668, 0, 0], 
        [669, 0, 0], 
        [670, 0, 0], 
        [671, 0, 0], 
        [672, 0, 0], 
        [673, 0, 0], 
        [674, 0, 0], 
        [675, 0, 0], 
        [676, 0, 0], 
        [677, 0, 0]
      ]
    }, 
    {
      "op": "SliceChannel", 
      "name": "lvl1 _yolomap_split", 
      "attrs": {
        "axis": "1", 
        "num_outputs": "75", 
        "squeeze_axis": "0"
      }, 
      "inputs": [[678, 0, 0]]
    }, 
    {
      "op": "_plus_scalar", 
      "name": "_plusscalar0", 
      "attrs": {"scalar": "0.0001"}, 
      "inputs": [[679, 0, 0]]
    }, 
    {
      "op": "log", 
      "name": "log0", 
      "inputs": [[680, 0, 0]]
    }, 
    {
      "op": "broadcast_mul", 
      "name": "broadcast_mul0", 
      "inputs": [[681, 0, 0], [1, 0, 0]]
    }, 
    {
      "op": "_rminus_scalar", 
      "name": "_rminus_scalar0", 
      "attrs": {"scalar": "1"}, 
      "inputs": [[679, 0, 0]]
    }, 
    {
      "op": "_plus_scalar", 
      "name": "_plusscalar1", 
      "attrs": {"scalar": "0.0001"}, 
…
      "attrs": {"scalar": "1"}, 
      "inputs": [[2740, 72, 0]]
    }, 
    {
      "op": "broadcast_mul", 
      "name": "broadcast_mul622", 
      "inputs": [[3773, 0, 0], [3774, 0, 0]]
    }, 
    {
      "op": "elemwise_add", 
      "name": "_plus423", 
      "inputs": [[3770, 0, 0], [3775, 0, 0]]
    }, 
    {
      "op": "broadcast_mul", 
      "name": "broadcast_mul623", 
      "inputs": [[2740, 50, 0], [3776, 0, 0]]
    }, 
    {
      "op": "mean", 
      "name": "mean231", 
      "attrs": {
        "axis": "(3, 2, 1, 0)", 
        "keepdims": "0"
      }, 
      "inputs": [[3777, 0, 0]]
    }, 
    {
      "op": "_mul_scalar", 
      "name": "_mulscalar195", 
      "attrs": {"scalar": "2"}, 
      "inputs": [[3778, 0, 0]]
    }, 
    {
      "op": "_rminus_scalar", 
      "name": "_rminus_scalar596", 
      "attrs": {"scalar": "0"}, 
      "inputs": [[3779, 0, 0]]
    }, 
    {
      "op": "elemwise_add", 
      "name": "_plus424", 
      "inputs": [[3767, 0, 0], [3780, 0, 0]]
    }, 
    {
      "op": "_plus_scalar", 
      "name": "_plusscalar395", 
      "attrs": {"scalar": "0.0001"}, 
      "inputs": [[2822, 73, 0]]
    }, 
    {
      "op": "log", 
      "name": "log392", 
      "inputs": [[3782, 0, 0]]
    }, 
    {
      "op": "broadcast_mul", 
      "name": "broadcast_mul624", 
      "inputs": [[3783, 0, 0], [2740, 73, 0]]
    }, 
    {
      "op": "_rminus_scalar", 
      "name": "_rminus_scalar597", 
      "attrs": {"scalar": "1"}, 
      "inputs": [[2822, 73, 0]]
    }, 
    {
      "op": "_plus_scalar", 
      "name": "_plusscalar396", 
      "attrs": {"scalar": "0.0001"}, 
      "inputs": [[3785, 0, 0]]
    }, 
    {
      "op": "log", 
      "name": "log393", 
      "inputs": [[3786, 0, 0]]
    }, 
    {
      "op": "_rminus_scalar", 
      "name": "_rminus_scalar598", 
      "attrs": {"scalar": "1"}, 
      "inputs": [[2740, 73, 0]]
    }, 
    {
      "op": "broadcast_mul", 
      "name": "broadcast_mul625", 
      "inputs": [[3787, 0, 0], [3788, 0, 0]]
    }, 
    {
      "op": "elemwise_add", 
      "name": "_plus425", 
      "inputs": [[3784, 0, 0], [3789, 0, 0]]
    }, 
    {
      "op": "broadcast_mul", 
      "name": "broadcast_mul626", 
      "inputs": [[2740, 50, 0], [3790, 0, 0]]
    }, 
    {
      "op": "mean", 
      "name": "mean232", 
      "attrs": {
        "axis": "(3, 2, 1, 0)", 
        "keepdims": "0"
      }, 
      "inputs": [[3791, 0, 0]]
    }, 
    {
      "op": "_mul_scalar", 
      "name": "_mulscalar196", 
      "attrs": {"scalar": "2"}, 
      "inputs": [[3792, 0, 0]]
    }, 
    {
      "op": "_rminus_scalar", 
      "name": "_rminus_scalar599", 
      "attrs": {"scalar": "0"}, 
      "inputs": [[3793, 0, 0]]
    }, 
    {
      "op": "elemwise_add", 
      "name": "_plus426", 
      "inputs": [[3781, 0, 0], [3794, 0, 0]]
    }, 
    {
      "op": "_plus_scalar", 
      "name": "_plusscalar397", 
      "attrs": {"scalar": "0.0001"}, 
      "inputs": [[2822, 74, 0]]
    }, 
    {
      "op": "log", 
      "name": "log394", 
      "inputs": [[3796, 0, 0]]
    }, 
    {
      "op": "broadcast_mul", 
      "name": "broadcast_mul627", 
      "inputs": [[3797, 0, 0], [2740, 74, 0]]
    }, 
    {
      "op": "_rminus_scalar", 
      "name": "_rminus_scalar600", 
      "attrs": {"scalar": "1"}, 
      "inputs": [[2822, 74, 0]]
    }, 
    {
      "op": "_plus_scalar", 
      "name": "_plusscalar398", 
      "attrs": {"scalar": "0.0001"}, 
      "inputs": [[3799, 0, 0]]
    }, 
    {
      "op": "log", 
      "name": "log395", 
      "inputs": [[3800, 0, 0]]
    }, 
    {
      "op": "_rminus_scalar", 
      "name": "_rminus_scalar601", 
      "attrs": {"scalar": "1"}, 
      "inputs": [[2740, 74, 0]]
    }, 
    {
      "op": "broadcast_mul", 
      "name": "broadcast_mul628", 
      "inputs": [[3801, 0, 0], [3802, 0, 0]]
    }, 
    {
      "op": "elemwise_add", 
      "name": "_plus427", 
      "inputs": [[3798, 0, 0], [3803, 0, 0]]
    }, 
    {
      "op": "broadcast_mul", 
      "name": "broadcast_mul629", 
      "inputs": [[2740, 50, 0], [3804, 0, 0]]
    }, 
    {
      "op": "mean", 
      "name": "mean233", 
      "attrs": {
        "axis": "(3, 2, 1, 0)", 
        "keepdims": "0"
      }, 
      "inputs": [[3805, 0, 0]]
    }, 
    {
      "op": "_mul_scalar", 
      "name": "_mulscalar197", 
      "attrs": {"scalar": "2"}, 
      "inputs": [[3806, 0, 0]]
    }, 
    {
      "op": "_rminus_scalar", 
      "name": "_rminus_scalar602", 
      "attrs": {"scalar": "0"}, 
      "inputs": [[3807, 0, 0]]
    }, 
    {
      "op": "elemwise_add", 
      "name": "_plus428", 
      "inputs": [[3795, 0, 0], [3808, 0, 0]]
    }, 
    {
      "op": "elemwise_add", 
      "name": "_plus430", 
      "inputs": [[2738, 0, 0], [3809, 0, 0]]
    }, 
    {
      "op": "MakeLoss", 
      "name": "makeloss0", 
      "inputs": [[3810, 0, 0]]
    }
  ], 
  "arg_nodes": [
    0, 
    2, 
    3, 
    5, 
    6, 
    7, 
    8, 
    11, 
    13, 
    14, 
    15, 
    16, 
    19, 
    21, 
    22, 
    23, 
    24, 
    27, 
    29, 
    30, 
    31, 
    32, 
    34, 
    36, 
    37, 
    38, 
    39, 
    42, 
    44, 
    45, 
    46, 
    47, 
    50, 
    52, 
    53, 
    54, 
    55, 
    57, 
    59, 
    60, 
    61, 
    62, 
    65, 
    67, 
    68, 
    69, 
    70, 
    73, 
    75, 
    76, 
    77, 
    78, 
    81, 
    83, 
    84, 
    85, 
    86, 
    89, 
    91, 
    92, 
    93, 
    94, 
    97, 
    99, 
    100, 
    101, 
    102, 
    104, 
    106, 
    107, 
    108, 
    109, 
    112, 
    114, 
    115, 
    116, 
    117, 
    120, 
    122, 
    123, 
    124, 
    125, 
    128, 
    130, 
    131, 
    132, 
    133, 
    136, 
    138, 
    139, 
    140, 
    141, 
    144, 
    146, 
    147, 
    148, 
    149, 
    152, 
    154, 
    155, 
    156, 
    157, 
    160, 
    162, 
    163, 
    164, 
    165, 
    168, 
    170, 
    171, 
    172, 
    173, 
    175, 
    177, 
    178, 
    179, 
    180, 
    183, 
    185, 
    186, 
    187, 
    188, 
    191, 
    193, 
    194, 
    195, 
    196, 
    199, 
    201, 
    202, 
    203, 
    204, 
    207, 
    209, 
    210, 
    211, 
    212, 
    215, 
    217, 
    218, 
    219, 
    220, 
    223, 
    225, 
    226, 
    227, 
    228, 
    231, 
    233, 
    234, 
    235, 
    236, 
    239, 
    241, 
    242, 
    243, 
    244, 
    247, 
    249, 
    250, 
    251, 
    252, 
    255, 
    257, 
    258, 
    259, 
    260, 
    263, 
    265, 
    266, 
    267, 
    268, 
    270, 
    272, 
    273, 
    274, 
    275, 
    278, 
    280, 
    281, 
    282, 
    283, 
    286, 
    288, 
    289, 
    290, 
    291, 
    294, 
    296, 
    297, 
    298, 
    299, 
    302, 
    304, 
    305, 
    306, 
    307, 
    310, 
    312, 
    313, 
    314, 
    315, 
    318, 
    320, 
    321, 
    322, 
    323, 
    326, 
    328, 
    329, 
    330, 
    331, 
    334, 
    336, 
    337, 
    338, 
    339, 
    341, 
    343, 
    344, 
    345, 
    346, 
    349, 
    351, 
    352, 
    353, 
    354, 
    357, 
    359, 
    360, 
    361, 
    362, 
    365, 
    367, 
    368, 
    369, 
    370, 
    373, 
    375, 
    376, 
    377, 
    378, 
    381, 
    383, 
    384, 
    385, 
    386, 
    389, 
    391, 
    392, 
    393, 
    394, 
    397, 
    399, 
    400, 
    401, 
    402, 
    405, 
    407, 
    408, 
    409, 
    410, 
    412, 
    414, 
    415, 
    416, 
    417, 
    420, 
    422, 
    423, 
    424, 
    425, 
    428, 
    430, 
    431, 
    432, 
    433, 
    436, 
    438, 
    439, 
    440, 
    441, 
    444, 
    446, 
    447, 
    448, 
    449, 
    452, 
    454, 
    455, 
    456, 
    457, 
    460, 
    462, 
    463, 
    464, 
    465, 
    468, 
    470, 
    471, 
    472, 
    473, 
    477, 
    479, 
    480, 
    481, 
    482, 
    485, 
    487, 
    488, 
    489, 
    490, 
    493, 
    495, 
    496, 
    497, 
    498, 
    501, 
    503, 
    504, 
    505, 
    506, 
    509, 
    511, 
    512, 
    513, 
    514, 
    517, 
    519, 
    520, 
    521, 
    522, 
    525, 
    527, 
    528, 
    529, 
    530, 
    533, 
    535, 
    536, 
    537, 
    538, 
    542, 
    544, 
    545, 
    546, 
    547, 
    550, 
    552, 
    553, 
    554, 
    555, 
    558, 
    560, 
    561, 
    562, 
    563, 
    566, 
    568, 
    569, 
    570, 
    571, 
    574, 
    576, 
    577, 
    578, 
    579, 
    582, 
    584, 
    585, 
    586, 
    587, 
    590, 
    592, 
    593, 
    594, 
    595, 
    599, 
    600, 
    1667, 
    1670, 
    1671, 
    2739, 
    2742, 
    2743
  ], 
  "node_row_ptr": [
    0, 
    1, 
    76, 
    77, 
    78, 
    79, 
    80, 
    81, 
    82, 
    83, 
    86, 
    87, 
    88, 
    89, 
    90, 
    91, 
    92, 
    93, 
    96, 
    97, 
    98, 
    99, 
    100, 
    101, 
    102, 
    103, 
    106, 
    107, 
    108, 
    109, 
    110, 
    111, 
    112, 
    113, 
    116, 
    117, 
    118, 
    119, 
    120, 
    121, 
    122, 
    125, 
    126, 
    127, 
    128, 
    129, 
    130, 
    131, 
    132, 
    135, 
    136, 
    137, 
    138, 
    139, 
    140, 
    141, 
    142, 
    145, 
    146, 
    147, 
    148, 
    149, 
    150, 
    151, 
    154, 
    155, 
    156, 
    157, 
    158, 
    159, 
    160, 
    161, 
    164, 
    165, 
    166, 
    167, 
    168, 
    169, 
    170, 
    171, 
    174, 
    175, 
    176, 
    177, 
    178, 
    179, 
    180, 
    181, 
    184, 
    185, 
    186, 
    187, 
    188, 
    189, 
    190, 
    191, 
    194, 
    195, 
    196, 
    197, 
    198, 
    199, 
    200, 
    201, 
    204, 
    205, 
    206, 
    207, 
    208, 
    209, 
    210, 
    213, 
    214, 
    215, 
    216, 
    217, 
    218, 
    219, 
    220, 
    223, 
    224, 
    225, 
    226, 
    227, 
    228, 
    229, 
    230, 
    233, 
    234, 
    235, 
    236, 
    237, 
    238, 
    239, 
    240, 
    243, 
    244, 
    245, 
    246, 
    247, 
    248, 
    249, 
    250, 
    253, 
    254, 
    255, 
    256, 
    257, 
    258, 
    259, 
    260, 
    263, 
    264, 
    265, 
    266, 
    267, 
    268, 
    269, 
    270, 
    273, 
    274, 
    275, 
    276, 
    277, 
    278, 
    279, 
    280, 
    283, 
    284, 
    285, 
    286, 
    287, 
    288, 
    289, 
    290, 
    293, 
    294, 
    295, 
    296, 
    297, 
    298, 
    299, 
    302, 
    303, 
    304, 
    305, 
    306, 
    307, 
    308, 
    309, 
    312, 
    313, 
    314, 
    315, 
    316, 
    317, 
    318, 
    319, 
    322, 
    323, 
    324, 
    325, 
    326, 
    327, 
    328, 
    329, 
    332, 
    333, 
    334, 
    335, 
    336, 
    337, 
    338, 
    339, 
    342, 
    343, 
    344, 
    345, 
    346, 
    347, 
    348, 
    349, 
    352, 
    353, 
    354, 
    355, 
    356, 
    357, 
    358, 
    359, 
    362, 
    363, 
    364, 
    365, 
    366, 
    367, 
    368, 
    369, 
    372, 
    373, 
    374, 
    375, 
    376, 
    377, 
    378, 
    379, 
    382, 
    383, 
    384, 
    385, 
    386, 
    387, 
    388, 
    389, 
    392, 
    393, 
    394, 
    395, 
    396, 
    397, 
    398, 
    399, 
    402, 
    403, 
    404, 
    405, 
    406, 
    407, 
    408, 
    409, 
    412, 
    413, 
    414, 
    415, 
    416, 
    417, 
    418, 
    421, 
    422, 
    423, 
    424, 
    425, 
    426, 
    427, 
    428, 
    431, 
    432, 
    433, 
    434, 
    435, 
    436, 
    437, 
    438, 
    441, 
    442, 
    443, 
    444, 
    445, 
    446, 
    447, 
    448, 
    451, 
    452, 
    453, 
    454, 
    455, 
    456, 
    457, 
    458, 
    461, 
    462, 
    463, 
    464, 
    465, 
    466, 
    467, 
    468, 
    471, 
    472, 
    473, 
    474, 
    475, 
    476, 
    477, 
    478, 
    481, 
    482, 
    483, 
    484, 
    485, 
    486, 
    487, 
    488, 
    491, 
    492, 
    493, 
    494, 
    495, 
    496, 
    497, 
    498, 
    501, 
    502, 
    503, 
    504, 
    505, 
    506, 
    507, 
    510, 
    511, 
    512, 
    513, 
    514, 
    515, 
    516, 
    517, 
    520, 
    521, 
    522, 
    523, 
    524, 
    525, 
    526, 
    527, 
    530, 
    531, 
    532, 
    533, 
    534, 
    535, 
    536, 
    537, 
    540, 
    541, 
    542, 
    543, 
    544, 
    545, 
    546, 
    547, 
    550, 
    551, 
    552, 
    553, 
    554, 
    555, 
    556, 
    557, 
    560, 
    561, 
    562, 
    563, 
    564, 
    565, 
    566, 
    567, 
    570, 
    571, 
    572, 
    573, 
    574, 
    575, 
    576, 
    577, 
    580, 
    581, 
    582, 
    583, 
    584, 
    585, 
    586, 
    587, 
    590, 
    591, 
    592, 
    593, 
    594, 
    595, 
    596, 
    599, 
    600, 
    601, 
    602, 
    603, 
    604, 
    605, 
    606, 
    609, 
    610, 
    611, 
    612, 
    613, 
    614, 
    615, 
    616, 
    619, 
    620, 
    621, 
    622, 
    623, 
    624, 
    625, 
    626, 
    629, 
    630, 
    631, 
    632, 
    633, 
    634, 
    635, 
    636, 
    639, 
    640, 
    641, 
    642, 
    643, 
    644, 
    645, 
    646, 
    649, 
    650, 
    651, 
    652, 
    653, 
    654, 
    655, 
    656, 
    659, 
    660, 
    661, 
    662, 
    663, 
    664, 
    665, 
    666, 
    669, 
    670, 
    671, 
    672, 
    673, 
    674, 
    675, 
    676, 
    677, 
    680, 
    681, 
    682, 
    683, 
    684, 
    685, 
    686, 
    687, 
    690, 
    691, 
    692, 
    693, 
    694, 
    695, 
    696, 
    697, 
    700, 
    701, 
    702, 
    703, 
    704, 
    705, 
    706, 
    707, 
    710, 
    711, 
    712, 
    713, 
    714, 
    715, 
    716, 
    717, 
    720, 
    721, 
    722, 
    723, 
    724, 
    725, 
    726, 
    727, 
    730, 
    731, 
    732, 
    733, 
    734, 
    735, 
    736, 
    737, 
    740, 
    741, 
    742, 
    743, 
    744, 
    745, 
    746, 
    747, 
    750, 
    751, 
    752, 
    753, 
    754, 
    755, 
    756, 
    757, 
    758, 
    761, 
    762, 
    763, 
    764, 
    765, 
    766, 
    767, 
    768, 
    771, 
    772, 
    773, 
    774, 
    775, 
    776, 
    777, 
    778, 
    781, 
    782, 
    783, 
    784, 
    785, 
    786, 
    787, 
    788, 
    791, 
    792, 
    793, 
    794, 
    795, 
    796, 
    797, 
    798, 
    801, 
    802, 
    803, 
    804, 
    805, 
    806, 
    807, 
    808, 
    811, 
    812, 
    813, 
    814, 
    815, 
    816, 
    817, 
    818, 
    821, 
    822, 
    824, 
    825, 
    826, 
    827, 
    902, 
    903, 
    904, 
    905, 
    906, 
    907, 
    908, 
    909, 
    910, 
    911, 
    912, 
    913, 
    914, 
    915, 
    916, 
    917, 
    918, 
    919, 
    920, 
    921, 
    922, 
    923, 
    924, 
    925, 
    926, 
    927, 
    928, 
    929, 
    930, 
    931, 
    932, 
    933, 
    934, 
    935, 
    936, 
    937, 
    938, 
    939, 
    940, 
    941, 
    942, 
    943, 
    944, 
    945, 
    946, 
    947, 
    948, 
    949, 
    950, 
    951, 
    952, 
    953, 
    954, 
    955, 
    956, 
    957, 
    958, 
    959, 
    960, 
    961, 
    962, 
    963, 
    964, 
    965, 
    966, 
    967, 
    968, 
    969, 
    970, 
    971, 
    972, 
    973, 
    974, 
    975, 
    976, 
    977, 
    978, 
    1053, 
    1054, 
    1055, 
    1056, 
    1057, 
    1058, 
    1059, 
    1060, 
    1061, 
    1062, 
    1063, 
    1064, 
    1065, 
    1066, 
    1067, 
    1068, 
    1069, 
    1070, 
    1071, 
    1072, 
    1073, 
    1074, 
    1075, 
    1076, 
    1077, 
    1078, 
    1079, 
    1080, 
    1081, 
    1082, 
    1083, 
    1084, 
    1085, 
    1086, 
    1087, 
    1088, 
    1089, 
    1090, 
    1091, 
    1092, 
    1093, 
    1094, 
    1095, 
    1096, 
    1097, 
    1098, 
    1099, 
    1100, 
    1101, 
    1102, 
    1103, 
    1104, 
    1105, 
    1106, 
    1107, 
    1108, 
    1109, 
    1110, 
    1111, 
    1112, 
    1113, 
    1114, 
    1115, 
    1116, 
    1117, 
    1118, 
    1119, 
    1120, 
    1121, 
    1122, 
    1123, 
    1124, 
    1125, 
    1126, 
    1127, 
    1128, 
    1129, 
    1130, 
    1131, 
    1132, 
    1133, 
    1134, 
    1135, 
    1136, 
    1137, 
    1138, 
    1139, 
    1140, 
    1141, 
    1142, 
    1143, 
    1144, 
    1145, 
    1146, 
    1147, 
    1148, 
    1149, 
    1150, 
    1151, 
    1152, 
    1153, 
    1154, 
    1155, 
    1156, 
    1157, 
    1158, 
    1159, 
    1160, 
    1161, 
    1162, 
    1163, 
    1164, 
    1165, 
    1166, 
    1167, 
    1168, 
    1169, 
    1170, 
    1171, 
    1172, 
    1173, 
    1174, 
    1175, 
    1176, 
    1177, 
    1178, 
    1179, 
    1180, 
    1181, 
    1182, 
    1183, 
    1184, 
    1185, 
    1186, 
    1187, 
    1188, 
    1189, 
    1190, 
    1191, 
    1192, 
    1193, 
    1194, 
    1195, 
    1196, 
    1197, 
    1198, 
    1199, 
    1200, 
    1201, 
    1202, 
    1203, 
    1204, 
    1205, 
    1206, 
    1207, 
    1208, 
    1209, 
    1210, 
    1211, 
    1212, 
    1213, 
    1214, 
    1215, 
    1216, 
    1217, 
    1218, 
    1219, 
    1220, 
    1221, 
    1222, 
    1223, 
    1224, 
    1225, 
    1226, 
    1227, 
    1228, 
    1229, 
    1230, 
    1231, 
    1232, 
    1233, 
    1234, 
    1235, 
    1236, 
    1237, 
    1238, 
    1239, 
    1240, 
    1241, 
    1242, 
    1243, 
    1244, 
    1245, 
    1246, 
    1247, 
    1248, 
    1249, 
    1250, 
    1251, 
    1252, 
    1253, 
    1254, 
    1255, 
    1256, 
    1257, 
    1258, 
    1259, 
    1260, 
    1261, 
    1262, 
    1263, 
    1264, 
    1265, 
    1266, 
    1267, 
    1268, 
    1269, 
    1270, 
    1271, 
    1272, 
    1273, 
    1274, 
    1275, 
    1276, 
    1277, 
    1278, 
    1279, 
    1280, 
    1281, 
    1282, 
    1283, 
    1284, 
    1285, 
    1286, 
    1287, 
    1288, 
    1289, 
    1290, 
    1291, 
    1292, 
    1293, 
    1294, 
    1295, 
    1296, 
    1297, 
    1298, 
    1299, 
    1300, 
    1301, 
    1302, 
    1303, 
    1304, 
    1305, 
    1306, 
    1307, 
    1308, 
    1309, 
    1310, 
    1311, 
    1312, 
    1313, 
    1314, 
    1315, 
    1316, 
    1317, 
    1318, 
    1319, 
    1320, 
    1321, 
    1322, 
    1323, 
    1324, 
    1325, 
    1326, 
    1327, 
    1328, 
    1329, 
    1330, 
    1331, 
    1332, 
    1333, 
    1334, 
    1335, 
    1336, 
    1337, 
    1338, 
    1339, 
    1340, 
    1341, 
    1342, 
    1343, 
    1344, 
    1345, 
    1346, 
    1347, 
    1348, 
    1349, 
    1350, 
    1351, 
    1352, 
    1353, 
    1354, 
    1355, 
    1356, 
    1357, 
    1358, 
    1359, 
    1360, 
    1361, 
    1362, 
    1363, 
    1364, 
    1365, 
    1366, 
    1367, 
    1368, 
    1369, 
    1370, 
    1371, 
    1372, 
    1373, 
    1374, 
    1375, 
    1376, 
    1377, 
    1378, 
    1379, 
    1380, 
    1381, 
    1382, 
    1383, 
    1384, 
    1385, 
    1386, 
    1387, 
    1388, 
    1389, 
    1390, 
    1391, 
    1392, 
    1393, 
    1394, 
    1395, 
    1396, 
    1397, 
    1398, 
    1399, 
    1400, 
    1401, 
    1402, 
    1403, 
    1404, 
    1405, 
    1406, 
    1407, 
    1408, 
    1409, 
    1410, 
    1411, 
    1412, 
    1413, 
    1414, 
    1415, 
    1416, 
    1417, 
    1418, 
    1419, 
    1420, 
    1421, 
    1422, 
    1423, 
    1424, 
    1425, 
    1426, 
    1427, 
    1428, 
    1429, 
    1430, 
    1431, 
    1432, 
    1433, 
    1434, 
    1435, 
    1436, 
    1437, 
    1438, 
    1439, 
    1440, 
    1441, 
    1442, 
    1443, 
    1444, 
    1445, 
    1446, 
    1447, 
    1448, 
    1449, 
    1450, 
    1451, 
    1452, 
    1453, 
    1454, 
    1455, 
    1456, 
    1457, 
    1458, 
    1459, 
    1460, 
    1461, 
    1462, 
    1463, 
    1464, 
    1465, 
    1466, 
    1467, 
    1468, 
    1469, 
    1470, 
    1471, 
    1472, 
    1473, 
    1474, 
    1475, 
    1476, 
    1477, 
    1478, 
    1479, 
    1480, 
    1481, 
    1482, 
    1483, 
    1484, 
    1485, 
    1486, 
    1487, 
    1488, 
    1489, 
    1490, 
    1491, 
    1492, 
    1493, 
    1494, 
    1495, 
    1496, 
    1497, 
    1498, 
    1499, 
    1500, 
    1501, 
    1502, 
    1503, 
    1504, 
    1505, 
    1506, 
    1507, 
    1508, 
    1509, 
    1510, 
    1511, 
    1512, 
    1513, 
    1514, 
    1515, 
    1516, 
    1517, 
    1518, 
    1519, 
    1520, 
    1521, 
    1522, 
    1523, 
    1524, 
    1525, 
    1526, 
    1527, 
    1528, 
    1529, 
    1530, 
    1531, 
    1532, 
    1533, 
    1534, 
    1535, 
    1536, 
    1537, 
    1538, 
    1539, 
    1540, 
    1541, 
    1542, 
    1543, 
    1544, 
    1545, 
    1546, 
    1547, 
    1548, 
    1549, 
    1550, 
    1551, 
    1552, 
    1553, 
    1554, 
    1555, 
    1556, 
    1557, 
    1558, 
    1559, 
    1560, 
    1561, 
    1562, 
    1563, 
    1564, 
    1565, 
    1566, 
    1567, 
    1568, 
    1569, 
    1570, 
    1571, 
    1572, 
    1573, 
    1574, 
    1575, 
    1576, 
    1577, 
    1578, 
    1579, 
    1580, 
    1581, 
    1582, 
    1583, 
    1584, 
    1585, 
    1586, 
    1587, 
    1588, 
    1589, 
    1590, 
    1591, 
    1592, 
    1593, 
    1594, 
    1595, 
    1596, 
    1597, 
    1598, 
    1599, 
    1600, 
    1601, 
    1602, 
    1603, 
    1604, 
    1605, 
    1606, 
    1607, 
    1608, 
    1609, 
    1610, 
    1611, 
    1612, 
    1613, 
    1614, 
    1615, 
    1616, 
    1617, 
    1618, 
    1619, 
    1620, 
    1621, 
    1622, 
    1623, 
    1624, 
    1625, 
    1626, 
    1627, 
    1628, 
    1629, 
    1630, 
    1631, 
    1632, 
    1633, 
    1634, 
    1635, 
    1636, 
    1637, 
    1638, 
    1639, 
    1640, 
    1641, 
    1642, 
    1643, 
    1644, 
    1645, 
    1646, 
    1647, 
    1648, 
    1649, 
    1650, 
    1651, 
    1652, 
    1653, 
    1654, 
    1655, 
    1656, 
    1657, 
    1658, 
    1659, 
    1660, 
    1661, 
    1662, 
    1663, 
    1664, 
    1665, 
    1666, 
    1667, 
    1668, 
    1669, 
    1670, 
    1671, 
    1672, 
    1673, 
    1674, 
    1675, 
    1676, 
    1677, 
    1678, 
    1679, 
    1680, 
    1681, 
    1682, 
    1683, 
    1684, 
    1685, 
    1686, 
    1687, 
    1688, 
    1689, 
    1690, 
    1691, 
    1692, 
    1693, 
    1694, 
    1695, 
    1696, 
    1697, 
    1698, 
    1699, 
    1700, 
    1701, 
    1702, 
    1703, 
    1704, 
    1705, 
    1706, 
    1707, 
    1708, 
    1709, 
    1710, 
    1711, 
    1712, 
    1713, 
    1714, 
    1715, 
    1716, 
    1717, 
    1718, 
    1719, 
    1720, 
    1721, 
    1722, 
    1723, 
    1724, 
    1725, 
    1726, 
    1727, 
    1728, 
    1729, 
    1730, 
    1731, 
    1732, 
    1733, 
    1734, 
    1735, 
    1736, 
    1737, 
    1738, 
    1739, 
    1740, 
    1741, 
    1742, 
    1743, 
    1744, 
    1745, 
    1746, 
    1747, 
    1748, 
    1749, 
    1750, 
    1751, 
    1752, 
    1753, 
    1754, 
    1755, 
    1756, 
    1757, 
    1758, 
    1759, 
    1760, 
    1761, 
    1762, 
    1763, 
    1764, 
    1765, 
    1766, 
    1767, 
    1768, 
    1769, 
    1770, 
    1771, 
    1772, 
    1773, 
    1774, 
    1775, 
    1776, 
    1777, 
    1778, 
    1779, 
    1780, 
    1781, 
    1782, 
    1783, 
    1784, 
    1785, 
    1786, 
    1787, 
    1788, 
    1789, 
    1790, 
    1791, 
    1792, 
    1793, 
    1794, 
    1795, 
    1796, 
    1797, 
    1798, 
    1799, 
    1800, 
    1801, 
    1802, 
    1803, 
    1804, 
    1805, 
    1806, 
    1807, 
    1808, 
    1809, 
    1810, 
    1811, 
    1812, 
    1813, 
    1814, 
    1815, 
    1816, 
    1817, 
    1818, 
    1819, 
    1820, 
    1821, 
    1822, 
    1823, 
    1824, 
    1825, 
    1826, 
    1827, 
    1828, 
    1829, 
    1830, 
    1831, 
    1832, 
    1833, 
    1834, 
    1835, 
    1836, 
    1837, 
    1838, 
    1839, 
    1840, 
    1841, 
    1842, 
    1843, 
    1844, 
    1845, 
    1846, 
    1847, 
    1848, 
    1849, 
    1850, 
    1851, 
    1852, 
    1853, 
    1854, 
    1855, 
    1856, 
    1857, 
    1858, 
    1859, 
    1860, 
    1861, 
    1862, 
    1863, 
    1864, 
    1865, 
    1866, 
    1867, 
    1868, 
    1869, 
    1870, 
    1871, 
    1872, 
    1873, 
    1874, 
    1875, 
    1876, 
    1877, 
    1878, 
    1879, 
    1880, 
    1881, 
    1882, 
    1883, 
    1884, 
    1885, 
    1886, 
    1887, 
    1888, 
    1889, 
    1890, 
    1891, 
    1892, 
    1893, 
    1894, 
    1895, 
    1896, 
    1897, 
    1898, 
    1899, 
    1900, 
    1901, 
    1902, 
    1903, 
    1904, 
    1905, 
    1906, 
    1907, 
    1908, 
    1909, 
    1910, 
    1911, 
    1912, 
    1913, 
    1914, 
    1915, 
    1916, 
    1917, 
    1918, 
    1919, 
    1920, 
    1921, 
    1922, 
    1923, 
    1924, 
    1925, 
    1926, 
    1927, 
    1928, 
    1929, 
    1930, 
    1931, 
    1932, 
    1933, 
    1934, 
    1935, 
    1936, 
    1937, 
    1938, 
    1939, 
    1940, 
    1941, 
    1942, 
    1943, 
    1944, 
    1945, 
    1946, 
    1947, 
    1948, 
    1949, 
    1950, 
    1951, 
    1952, 
    1953, 
    1954, 
    1955, 
    1956, 
    1957, 
    1958, 
    1959, 
    1960, 
    1961, 
    1962, 
    1963, 
    1964, 
    1965, 
    1966, 
    1967, 
    1968, 
    1969, 
    1970, 
    1971, 
    1972, 
    1973, 
    1974, 
    1975, 
    1976, 
    1977, 
    1978, 
    1979, 
    1980, 
    1981, 
    1982, 
    1983, 
    1984, 
    1985, 
    1986, 
    1987, 
    1988, 
    1989, 
    1990, 
    1991, 
    1992, 
    1993, 
    1994, 
    1995, 
    1996, 
    1997, 
    1998, 
    1999, 
    2000, 
    2001, 
    2002, 
    2003, 
    2004, 
    2005, 
    2006, 
    2007, 
    2008, 
    2009, 
    2010, 
    2011, 
    2012, 
    2013, 
    2014, 
    2015, 
    2016, 
    2017, 
    2018, 
    2019, 
    2020, 
    2021, 
    2022, 
    2023, 
    2024, 
    2025, 
    2026, 
    2027, 
    2028, 
    2029, 
    2030, 
    2031, 
    2032, 
    2033, 
    2034, 
    2035, 
    2036, 
    2037, 
    2038, 
    2039, 
    2040, 
    2041, 
    2116, 
    2118, 
    2119, 
    2120, 
    2121, 
    2196, 
    2197, 
    2198, 
    2199, 
    2200, 
    2201, 
    2202, 
    2203, 
    2204, 
    2205, 
    2206, 
    2207, 
    2208, 
    2209, 
    2210, 
    2211, 
    2212, 
    2213, 
    2214, 
    2215, 
    2216, 
    2217, 
    2218, 
    2219, 
    2220, 
    2221, 
    2222, 
    2223, 
    2224, 
    2225, 
    2226, 
    2227, 
    2228, 
    2229, 
    2230, 
    2231, 
    2232, 
    2233, 
    2234, 
    2235, 
    2236, 
    2237, 
    2238, 
    2239, 
    2240, 
    2241, 
    2242, 
    2243, 
    2244, 
    2245, 
    2246, 
    2247, 
    2248, 
    2249, 
    2250, 
    2251, 
    2252, 
    2253, 
    2254, 
    2255, 
    2256, 
    2257, 
    2258, 
    2259, 
    2260, 
    2261, 
    2262, 
    2263, 
    2264, 
    2265, 
    2266, 
    2267, 
    2268, 
    2269, 
    2270, 
    2271, 
    2272, 
    2347, 
    2348, 
    2349, 
    2350, 
    2351, 
    2352, 
    2353, 
    2354, 
    2355, 
    2356, 
    2357, 
    2358, 
    2359, 
    2360, 
    2361, 
    2362, 
    2363, 
    2364, 
    2365, 
    2366, 
    2367, 
    2368, 
    2369, 
    2370, 
    2371, 
    2372, 
    2373, 
    2374, 
    2375, 
    2376, 
    2377, 
    2378, 
    2379, 
    2380, 
    2381, 
    2382, 
    2383, 
    2384, 
    2385, 
    2386, 
    2387, 
    2388, 
    2389, 
    2390, 
    2391, 
    2392, 
    2393, 
    2394, 
    2395, 
    2396, 
    2397, 
    2398, 
    2399, 
    2400, 
    2401, 
    2402, 
    2403, 
    2404, 
    2405, 
    2406, 
    2407, 
    2408, 
    2409, 
    2410, 
    2411, 
    2412, 
    2413, 
    2414, 
    2415, 
    2416, 
    2417, 
    2418, 
    2419, 
    2420, 
    2421, 
    2422, 
    2423, 
    2424, 
    2425, 
    2426, 
    2427, 
    2428, 
    2429, 
    2430, 
    2431, 
    2432, 
    2433, 
    2434, 
    2435, 
    2436, 
    2437, 
    2438, 
    2439, 
    2440, 
    2441, 
    2442, 
    2443, 
    2444, 
    2445, 
    2446, 
    2447, 
    2448, 
    2449, 
    2450, 
    2451, 
    2452, 
    2453, 
    2454, 
    2455, 
    2456, 
    2457, 
    2458, 
    2459, 
    2460, 
    2461, 
    2462, 
    2463, 
    2464, 
    2465, 
    2466, 
    2467, 
    2468, 
    2469, 
    2470, 
    2471, 
    2472, 
    2473, 
    2474, 
    2475, 
    2476, 
    2477, 
    2478, 
    2479, 
    2480, 
    2481, 
    2482, 
    2483, 
    2484, 
    2485, 
    2486, 
    2487, 
    2488, 
    2489, 
    2490, 
    2491, 
    2492, 
    2493, 
    2494, 
    2495, 
    2496, 
    2497, 
    2498, 
    2499, 
    2500, 
    2501, 
    2502, 
    2503, 
    2504, 
    2505, 
    2506, 
    2507, 
    2508, 
    2509, 
    2510, 
    2511, 
    2512, 
    2513, 
    2514, 
    2515, 
    2516, 
    2517, 
    2518, 
    2519, 
    2520, 
    2521, 
    2522, 
    2523, 
    2524, 
    2525, 
    2526, 
    2527, 
    2528, 
    2529, 
    2530, 
    2531, 
    2532, 
    2533, 
    2534, 
    2535, 
    2536, 
    2537, 
    2538, 
    2539, 
    2540, 
    2541, 
    2542, 
    2543, 
    2544, 
    2545, 
    2546, 
    2547, 
    2548, 
    2549, 
    2550, 
    2551, 
    2552, 
    2553, 
    2554, 
    2555, 
    2556, 
    2557, 
    2558, 
    2559, 
    2560, 
    2561, 
    2562, 
    2563, 
    2564, 
    2565, 
    2566, 
    2567, 
    2568, 
    2569, 
    2570, 
    2571, 
    2572, 
    2573, 
    2574, 
    2575, 
    2576, 
    2577, 
    2578, 
    2579, 
    2580, 
    2581, 
    2582, 
    2583, 
    2584, 
    2585, 
    2586, 
    2587, 
    2588, 
    2589, 
    2590, 
    2591, 
    2592, 
    2593, 
    2594, 
    2595, 
    2596, 
    2597, 
    2598, 
    2599, 
    2600, 
    2601, 
    2602, 
    2603, 
    2604, 
    2605, 
    2606, 
    2607, 
    2608, 
    2609, 
    2610, 
    2611, 
    2612, 
    2613, 
    2614, 
    2615, 
    2616, 
    2617, 
    2618, 
    2619, 
    2620, 
    2621, 
    2622, 
    2623, 
    2624, 
    2625, 
    2626, 
    2627, 
    2628, 
    2629, 
    2630, 
    2631, 
    2632, 
    2633, 
    2634, 
    2635, 
    2636, 
    2637, 
    2638, 
    2639, 
    2640, 
    2641, 
    2642, 
    2643, 
    2644, 
    2645, 
    2646, 
    2647, 
    2648, 
    2649, 
    2650, 
    2651, 
    2652, 
    2653, 
    2654, 
    2655, 
    2656, 
    2657, 
    2658, 
    2659, 
    2660, 
    2661, 
    2662, 
    2663, 
    2664, 
    2665, 
    2666, 
    2667, 
    2668, 
    2669, 
    2670, 
    2671, 
    2672, 
    2673, 
    2674, 
    2675, 
    2676, 
    2677, 
    2678, 
    2679, 
    2680, 
    2681, 
    2682, 
    2683, 
    2684, 
    2685, 
    2686, 
    2687, 
    2688, 
    2689, 
    2690, 
    2691, 
    2692, 
    2693, 
    2694, 
    2695, 
    2696, 
    2697, 
    2698, 
    2699, 
    2700, 
    2701, 
    2702, 
    2703, 
    2704, 
    2705, 
    2706, 
    2707, 
    2708, 
    2709, 
    2710, 
    2711, 
    2712, 
    2713, 
    2714, 
    2715, 
    2716, 
    2717, 
    2718, 
    2719, 
    2720, 
    2721, 
    2722, 
    2723, 
    2724, 
    2725, 
    2726, 
    2727, 
    2728, 
    2729, 
    2730, 
    2731, 
    2732, 
    2733, 
    2734, 
    2735, 
    2736, 
    2737, 
    2738, 
    2739, 
    2740, 
    2741, 
    2742, 
    2743, 
    2744, 
    2745, 
    2746, 
    2747, 
    2748, 
    2749, 
    2750, 
    2751, 
    2752, 
    2753, 
    2754, 
    2755, 
    2756, 
    2757, 
    2758, 
    2759, 
    2760, 
    2761, 
    2762, 
    2763, 
    2764, 
    2765, 
    2766, 
    2767, 
    2768, 
    2769, 
    2770, 
    2771, 
    2772, 
    2773, 
    2774, 
    2775, 
    2776, 
    2777, 
    2778, 
    2779, 
    2780, 
    2781, 
    2782, 
    2783, 
    2784, 
    2785, 
    2786, 
    2787, 
    2788, 
    2789, 
    2790, 
    2791, 
    2792, 
    2793, 
    2794, 
    2795, 
    2796, 
    2797, 
    2798, 
    2799, 
    2800, 
    2801, 
    2802, 
    2803, 
    2804, 
    2805, 
    2806, 
    2807, 
    2808, 
    2809, 
    2810, 
    2811, 
    2812, 
    2813, 
    2814, 
    2815, 
    2816, 
    2817, 
    2818, 
    2819, 
    2820, 
    2821, 
    2822, 
    2823, 
    2824, 
    2825, 
    2826, 
    2827, 
    2828, 
    2829, 
    2830, 
    2831, 
    2832, 
    2833, 
    2834, 
    2835, 
    2836, 
    2837, 
    2838, 
    2839, 
    2840, 
    2841, 
    2842, 
    2843, 
    2844, 
    2845, 
    2846, 
    2847, 
    2848, 
    2849, 
    2850, 
    2851, 
    2852, 
    2853, 
    2854, 
    2855, 
    2856, 
    2857, 
    2858, 
    2859, 
    2860, 
    2861, 
    2862, 
    2863, 
    2864, 
    2865, 
    2866, 
    2867, 
    2868, 
    2869, 
    2870, 
    2871, 
    2872, 
    2873, 
    2874, 
    2875, 
    2876, 
    2877, 
    2878, 
    2879, 
    2880, 
    2881, 
    2882, 
    2883, 
    2884, 
    2885, 
    2886, 
    2887, 
    2888, 
    2889, 
    2890, 
    2891, 
    2892, 
    2893, 
    2894, 
    2895, 
    2896, 
    2897, 
    2898, 
    2899, 
    2900, 
    2901, 
    2902, 
    2903, 
    2904, 
    2905, 
    2906, 
    2907, 
    2908, 
    2909, 
    2910, 
    2911, 
    2912, 
    2913, 
    2914, 
    2915, 
    2916, 
    2917, 
    2918, 
    2919, 
    2920, 
    2921, 
    2922, 
    2923, 
    2924, 
    2925, 
    2926, 
    2927, 
    2928, 
    2929, 
    2930, 
    2931, 
    2932, 
    2933, 
    2934, 
    2935, 
    2936, 
    2937, 
    2938, 
    2939, 
    2940, 
    2941, 
    2942, 
    2943, 
    2944, 
    2945, 
    2946, 
    2947, 
    2948, 
    2949, 
    2950, 
    2951, 
    2952, 
    2953, 
    2954, 
    2955, 
    2956, 
    2957, 
    2958, 
    2959, 
    2960, 
    2961, 
    2962, 
    2963, 
    2964, 
    2965, 
    2966, 
    2967, 
    2968, 
    2969, 
    2970, 
    2971, 
    2972, 
    2973, 
    2974, 
    2975, 
    2976, 
    2977, 
    2978, 
    2979, 
    2980, 
    2981, 
    2982, 
    2983, 
    2984, 
    2985, 
    2986, 
    2987, 
    2988, 
    2989, 
    2990, 
    2991, 
    2992, 
    2993, 
    2994, 
    2995, 
    2996, 
    2997, 
    2998, 
    2999, 
    3000, 
    3001, 
    3002, 
    3003, 
    3004, 
    3005, 
    3006, 
    3007, 
    3008, 
    3009, 
    3010, 
    3011, 
    3012, 
    3013, 
    3014, 
    3015, 
    3016, 
    3017, 
    3018, 
    3019, 
    3020, 
    3021, 
    3022, 
    3023, 
    3024, 
    3025, 
    3026, 
    3027, 
    3028, 
    3029, 
    3030, 
    3031, 
    3032, 
    3033, 
    3034, 
    3035, 
    3036, 
    3037, 
    3038, 
    3039, 
    3040, 
    3041, 
    3042, 
    3043, 
    3044, 
    3045, 
    3046, 
    3047, 
    3048, 
    3049, 
    3050, 
    3051, 
    3052, 
    3053, 
    3054, 
    3055, 
    3056, 
    3057, 
    3058, 
    3059, 
    3060, 
    3061, 
    3062, 
    3063, 
    3064, 
    3065, 
    3066, 
    3067, 
    3068, 
    3069, 
    3070, 
    3071, 
    3072, 
    3073, 
    3074, 
    3075, 
    3076, 
    3077, 
    3078, 
    3079, 
    3080, 
    3081, 
    3082, 
    3083, 
    3084, 
    3085, 
    3086, 
    3087, 
    3088, 
    3089, 
    3090, 
    3091, 
    3092, 
    3093, 
    3094, 
    3095, 
    3096, 
    3097, 
    3098, 
    3099, 
    3100, 
    3101, 
    3102, 
    3103, 
    3104, 
    3105, 
    3106, 
    3107, 
    3108, 
    3109, 
    3110, 
    3111, 
    3112, 
    3113, 
    3114, 
    3115, 
    3116, 
    3117, 
    3118, 
    3119, 
    3120, 
    3121, 
    3122, 
    3123, 
    3124, 
    3125, 
    3126, 
    3127, 
    3128, 
    3129, 
    3130, 
    3131, 
    3132, 
    3133, 
    3134, 
    3135, 
    3136, 
    3137, 
    3138, 
    3139, 
    3140, 
    3141, 
    3142, 
    3143, 
    3144, 
    3145, 
    3146, 
    3147, 
    3148, 
    3149, 
    3150, 
    3151, 
    3152, 
    3153, 
    3154, 
    3155, 
    3156, 
    3157, 
    3158, 
    3159, 
    3160, 
    3161, 
    3162, 
    3163, 
    3164, 
    3165, 
    3166, 
    3167, 
    3168, 
    3169, 
    3170, 
    3171, 
    3172, 
    3173, 
    3174, 
    3175, 
    3176, 
    3177, 
    3178, 
    3179, 
    3180, 
    3181, 
    3182, 
    3183, 
    3184, 
    3185, 
    3186, 
    3187, 
    3188, 
    3189, 
    3190, 
    3191, 
    3192, 
    3193, 
    3194, 
    3195, 
    3196, 
    3197, 
    3198, 
    3199, 
    3200, 
    3201, 
    3202, 
    3203, 
    3204, 
    3205, 
    3206, 
    3207, 
    3208, 
    3209, 
    3210, 
    3211, 
    3212, 
    3213, 
    3214, 
    3215, 
    3216, 
    3217, 
    3218, 
    3219, 
    3220, 
    3221, 
    3222, 
    3223, 
    3224, 
    3225, 
    3226, 
    3227, 
    3228, 
    3229, 
    3230, 
    3231, 
    3232, 
    3233, 
    3234, 
    3235, 
    3236, 
    3237, 
    3238, 
    3239, 
    3240, 
    3241, 
    3242, 
    3243, 
    3244, 
    3245, 
    3246, 
    3247, 
    3248, 
    3249, 
    3250, 
    3251, 
    3252, 
    3253, 
    3254, 
    3255, 
    3256, 
    3257, 
    3258, 
    3259, 
    3260, 
    3261, 
    3262, 
    3263, 
    3264, 
    3265, 
    3266, 
    3267, 
    3268, 
    3269, 
    3270, 
    3271, 
    3272, 
    3273, 
    3274, 
    3275, 
    3276, 
    3277, 
    3278, 
    3279, 
    3280, 
    3281, 
    3282, 
    3283, 
    3284, 
    3285, 
    3286, 
    3287, 
    3288, 
    3289, 
    3290, 
    3291, 
    3292, 
    3293, 
    3294, 
    3295, 
    3296, 
    3297, 
    3298, 
    3299, 
    3300, 
    3301, 
    3302, 
    3303, 
    3304, 
    3305, 
    3306, 
    3307, 
    3308, 
    3309, 
    3310, 
    3311, 
    3312, 
    3313, 
    3314, 
    3315, 
    3316, 
    3317, 
    3318, 
    3319, 
    3320, 
    3321, 
    3322, 
    3323, 
    3324, 
    3325, 
    3326, 
    3327, 
    3328, 
    3329, 
    3330, 
    3331, 
    3332, 
    3333, 
    3334, 
    3335, 
    3336, 
    3411, 
    3413, 
    3414, 
    3415, 
    3416, 
    3491, 
    3492, 
    3493, 
    3494, 
    3495, 
    3496, 
    3497, 
    3498, 
    3499, 
    3500, 
    3501, 
    3502, 
    3503, 
    3504, 
    3505, 
    3506, 
    3507, 
    3508, 
    3509, 
    3510, 
    3511, 
    3512, 
    3513, 
    3514, 
    3515, 
    3516, 
    3517, 
    3518, 
    3519, 
    3520, 
    3521, 
    3522, 
    3523, 
    3524, 
    3525, 
    3526, 
    3527, 
    3528, 
    3529, 
    3530, 
    3531, 
    3532, 
    3533, 
    3534, 
    3535, 
    3536, 
    3537, 
    3538, 
    3539, 
    3540, 
    3541, 
    3542, 
    3543, 
    3544, 
    3545, 
    3546, 
    3547, 
    3548, 
    3549, 
    3550, 
    3551, 
    3552, 
    3553, 
    3554, 
    3555, 
    3556, 
    3557, 
    3558, 
    3559, 
    3560, 
    3561, 
    3562, 
    3563, 
    3564, 
    3565, 
    3566, 
    3567, 
    3642, 
    3643, 
    3644, 
    3645, 
    3646, 
    3647, 
    3648, 
    3649, 
    3650, 
    3651, 
    3652, 
    3653, 
    3654, 
    3655, 
    3656, 
    3657, 
    3658, 
    3659, 
    3660, 
    3661, 
    3662, 
    3663, 
    3664, 
    3665, 
    3666, 
    3667, 
    3668, 
    3669, 
    3670, 
    3671, 
    3672, 
    3673, 
    3674, 
    3675, 
    3676, 
    3677, 
    3678, 
    3679, 
    3680, 
    3681, 
    3682, 
    3683, 
    3684, 
    3685, 
    3686, 
    3687, 
    3688, 
    3689, 
    3690, 
    3691, 
    3692, 
    3693, 
    3694, 
    3695, 
    3696, 
    3697, 
    3698, 
    3699, 
    3700, 
    3701, 
    3702, 
    3703, 
    3704, 
    3705, 
    3706, 
    3707, 
    3708, 
    3709, 
    3710, 
    3711, 
    3712, 
    3713, 
    3714, 
    3715, 
    3716, 
    3717, 
    3718, 
    3719, 
    3720, 
    3721, 
    3722, 
    3723, 
    3724, 
    3725, 
    3726, 
    3727, 
    3728, 
    3729, 
    3730, 
    3731, 
    3732, 
    3733, 
    3734, 
    3735, 
    3736, 
    3737, 
    3738, 
    3739, 
    3740, 
    3741, 
    3742, 
    3743, 
    3744, 
    3745, 
    3746, 
    3747, 
    3748, 
    3749, 
    3750, 
    3751, 
    3752, 
    3753, 
    3754, 
    3755, 
    3756, 
    3757, 
    3758, 
    3759, 
    3760, 
    3761, 
    3762, 
    3763, 
    3764, 
    3765, 
    3766, 
    3767, 
    3768, 
    3769, 
    3770, 
    3771, 
    3772, 
    3773, 
    3774, 
    3775, 
    3776, 
    3777, 
    3778, 
    3779, 
    3780, 
    3781, 
    3782, 
    3783, 
    3784, 
    3785, 
    3786, 
    3787, 
    3788, 
    3789, 
    3790, 
    3791, 
    3792, 
    3793, 
    3794, 
    3795, 
    3796, 
    3797, 
    3798, 
    3799, 
    3800, 
    3801, 
    3802, 
    3803, 
    3804, 
    3805, 
    3806, 
    3807, 
    3808, 
    3809, 
    3810, 
    3811, 
    3812, 
    3813, 
    3814, 
    3815, 
    3816, 
    3817, 
    3818, 
    3819, 
    3820, 
    3821, 
    3822, 
    3823, 
    3824, 
    3825, 
    3826, 
    3827, 
    3828, 
    3829, 
    3830, 
    3831, 
    3832, 
    3833, 
    3834, 
    3835, 
    3836, 
    3837, 
    3838, 
    3839, 
    3840, 
    3841, 
    3842, 
    3843, 
    3844, 
    3845, 
    3846, 
    3847, 
    3848, 
    3849, 
    3850, 
    3851, 
    3852, 
    3853, 
    3854, 
    3855, 
    3856, 
    3857, 
    3858, 
    3859, 
    3860, 
    3861, 
    3862, 
    3863, 
    3864, 
    3865, 
    3866, 
    3867, 
    3868, 
    3869, 
    3870, 
    3871, 
    3872, 
    3873, 
    3874, 
    3875, 
    3876, 
    3877, 
    3878, 
    3879, 
    3880, 
    3881, 
    3882, 
    3883, 
    3884, 
    3885, 
    3886, 
    3887, 
    3888, 
    3889, 
    3890, 
    3891, 
    3892, 
    3893, 
    3894, 
    3895, 
    3896, 
    3897, 
    3898, 
    3899, 
    3900, 
    3901, 
    3902, 
    3903, 
    3904, 
    3905, 
    3906, 
    3907, 
    3908, 
    3909, 
    3910, 
    3911, 
    3912, 
    3913, 
    3914, 
    3915, 
    3916, 
    3917, 
    3918, 
    3919, 
    3920, 
    3921, 
    3922, 
    3923, 
    3924, 
    3925, 
    3926, 
    3927, 
    3928, 
    3929, 
    3930, 
    3931, 
    3932, 
    3933, 
    3934, 
    3935, 
    3936, 
    3937, 
    3938, 
    3939, 
    3940, 
    3941, 
    3942, 
    3943, 
    3944, 
    3945, 
    3946, 
    3947, 
    3948, 
    3949, 
    3950, 
    3951, 
    3952, 
    3953, 
    3954, 
    3955, 
    3956, 
    3957, 
    3958, 
    3959, 
    3960, 
    3961, 
    3962, 
    3963, 
    3964, 
    3965, 
    3966, 
    3967, 
    3968, 
    3969, 
    3970, 
    3971, 
    3972, 
    3973, 
    3974, 
    3975, 
    3976, 
    3977, 
    3978, 
    3979, 
    3980, 
    3981, 
    3982, 
    3983, 
    3984, 
    3985, 
    3986, 
    3987, 
    3988, 
    3989, 
    3990, 
    3991, 
    3992, 
    3993, 
    3994, 
    3995, 
    3996, 
    3997, 
    3998, 
    3999, 
    4000, 
    4001, 
    4002, 
    4003, 
    4004, 
    4005, 
    4006, 
    4007, 
    4008, 
    4009, 
    4010, 
    4011, 
    4012, 
    4013, 
    4014, 
    4015, 
    4016, 
    4017, 
    4018, 
    4019, 
    4020, 
    4021, 
    4022, 
    4023, 
    4024, 
    4025, 
    4026, 
    4027, 
    4028, 
    4029, 
    4030, 
    4031, 
    4032, 
    4033, 
    4034, 
    4035, 
    4036, 
    4037, 
    4038, 
    4039, 
    4040, 
    4041, 
    4042, 
    4043, 
    4044, 
    4045, 
    4046, 
    4047, 
    4048, 
    4049, 
    4050, 
    4051, 
    4052, 
    4053, 
    4054, 
    4055, 
    4056, 
    4057, 
    4058, 
    4059, 
    4060, 
    4061, 
    4062, 
    4063, 
    4064, 
    4065, 
    4066, 
    4067, 
    4068, 
    4069, 
    4070, 
    4071, 
    4072, 
    4073, 
    4074, 
    4075, 
    4076, 
    4077, 
    4078, 
    4079, 
    4080, 
    4081, 
    4082, 
    4083, 
    4084, 
    4085, 
    4086, 
    4087, 
    4088, 
    4089, 
    4090, 
    4091, 
    4092, 
    4093, 
    4094, 
    4095, 
    4096, 
    4097, 
    4098, 
    4099, 
    4100, 
    4101, 
    4102, 
    4103, 
    4104, 
    4105, 
    4106, 
    4107, 
    4108, 
    4109, 
    4110, 
    4111, 
    4112, 
    4113, 
    4114, 
    4115, 
    4116, 
    4117, 
    4118, 
    4119, 
    4120, 
    4121, 
    4122, 
    4123, 
    4124, 
    4125, 
    4126, 
    4127, 
    4128, 
    4129, 
    4130, 
    4131, 
    4132, 
    4133, 
    4134, 
    4135, 
    4136, 
    4137, 
    4138, 
    4139, 
    4140, 
    4141, 
    4142, 
    4143, 
    4144, 
    4145, 
    4146, 
    4147, 
    4148, 
    4149, 
    4150, 
    4151, 
    4152, 
    4153, 
    4154, 
    4155, 
    4156, 
    4157, 
    4158, 
    4159, 
    4160, 
    4161, 
    4162, 
    4163, 
    4164, 
    4165, 
    4166, 
    4167, 
    4168, 
    4169, 
    4170, 
    4171, 
    4172, 
    4173, 
    4174, 
    4175, 
    4176, 
    4177, 
    4178, 
    4179, 
    4180, 
    4181, 
    4182, 
    4183, 
    4184, 
    4185, 
    4186, 
    4187, 
    4188, 
    4189, 
    4190, 
    4191, 
    4192, 
    4193, 
    4194, 
    4195, 
    4196, 
    4197, 
    4198, 
    4199, 
    4200, 
    4201, 
    4202, 
    4203, 
    4204, 
    4205, 
    4206, 
    4207, 
    4208, 
    4209, 
    4210, 
    4211, 
    4212, 
    4213, 
    4214, 
    4215, 
    4216, 
    4217, 
    4218, 
    4219, 
    4220, 
    4221, 
    4222, 
    4223, 
    4224, 
    4225, 
    4226, 
    4227, 
    4228, 
    4229, 
    4230, 
    4231, 
    4232, 
    4233, 
    4234, 
    4235, 
    4236, 
    4237, 
    4238, 
    4239, 
    4240, 
    4241, 
    4242, 
    4243, 
    4244, 
    4245, 
    4246, 
    4247, 
    4248, 
    4249, 
    4250, 
    4251, 
    4252, 
    4253, 
    4254, 
    4255, 
    4256, 
    4257, 
    4258, 
    4259, 
    4260, 
    4261, 
    4262, 
    4263, 
    4264, 
    4265, 
    4266, 
    4267, 
    4268, 
    4269, 
    4270, 
    4271, 
    4272, 
    4273, 
    4274, 
    4275, 
    4276, 
    4277, 
    4278, 
    4279, 
    4280, 
    4281, 
    4282, 
    4283, 
    4284, 
    4285, 
    4286, 
    4287, 
    4288, 
    4289, 
    4290, 
    4291, 
    4292, 
    4293, 
    4294, 
    4295, 
    4296, 
    4297, 
    4298, 
    4299, 
    4300, 
    4301, 
    4302, 
    4303, 
    4304, 
    4305, 
    4306, 
    4307, 
    4308, 
    4309, 
    4310, 
    4311, 
    4312, 
    4313, 
    4314, 
    4315, 
    4316, 
    4317, 
    4318, 
    4319, 
    4320, 
    4321, 
    4322, 
    4323, 
    4324, 
    4325, 
    4326, 
    4327, 
    4328, 
    4329, 
    4330, 
    4331, 
    4332, 
    4333, 
    4334, 
    4335, 
    4336, 
    4337, 
    4338, 
    4339, 
    4340, 
    4341, 
    4342, 
    4343, 
    4344, 
    4345, 
    4346, 
    4347, 
    4348, 
    4349, 
    4350, 
    4351, 
    4352, 
    4353, 
    4354, 
    4355, 
    4356, 
    4357, 
    4358, 
    4359, 
    4360, 
    4361, 
    4362, 
    4363, 
    4364, 
    4365, 
    4366, 
    4367, 
    4368, 
    4369, 
    4370, 
    4371, 
    4372, 
    4373, 
    4374, 
    4375, 
    4376, 
    4377, 
    4378, 
    4379, 
    4380, 
    4381, 
    4382, 
    4383, 
    4384, 
    4385, 
    4386, 
    4387, 
    4388, 
    4389, 
    4390, 
    4391, 
    4392, 
    4393, 
    4394, 
    4395, 
    4396, 
    4397, 
    4398, 
    4399, 
    4400, 
    4401, 
    4402, 
    4403, 
    4404, 
    4405, 
    4406, 
    4407, 
    4408, 
    4409, 
    4410, 
    4411, 
    4412, 
    4413, 
    4414, 
    4415, 
    4416, 
    4417, 
    4418, 
    4419, 
    4420, 
    4421, 
    4422, 
    4423, 
    4424, 
    4425, 
    4426, 
    4427, 
    4428, 
    4429, 
    4430, 
    4431, 
    4432, 
    4433, 
    4434, 
    4435, 
    4436, 
    4437, 
    4438, 
    4439, 
    4440, 
    4441, 
    4442, 
    4443, 
    4444, 
    4445, 
    4446, 
    4447, 
    4448, 
    4449, 
    4450, 
    4451, 
    4452, 
    4453, 
    4454, 
    4455, 
    4456, 
    4457, 
    4458, 
    4459, 
    4460, 
    4461, 
    4462, 
    4463, 
    4464, 
    4465, 
    4466, 
    4467, 
    4468, 
    4469, 
    4470, 
    4471, 
    4472, 
    4473, 
    4474, 
    4475, 
    4476, 
    4477, 
    4478, 
    4479, 
    4480, 
    4481, 
    4482, 
    4483, 
    4484, 
    4485, 
    4486, 
    4487, 
    4488, 
    4489, 
    4490, 
    4491, 
    4492, 
    4493, 
    4494, 
    4495, 
    4496, 
    4497, 
    4498, 
    4499, 
    4500, 
    4501, 
    4502, 
    4503, 
    4504, 
    4505, 
    4506, 
    4507, 
    4508, 
    4509, 
    4510, 
    4511, 
    4512, 
    4513, 
    4514, 
    4515, 
    4516, 
    4517, 
    4518, 
    4519, 
    4520, 
    4521, 
    4522, 
    4523, 
    4524, 
    4525, 
    4526, 
    4527, 
    4528, 
    4529, 
    4530, 
    4531, 
    4532, 
    4533, 
    4534, 
    4535, 
    4536, 
    4537, 
    4538, 
    4539, 
    4540, 
    4541, 
    4542, 
    4543, 
    4544, 
    4545, 
    4546, 
    4547, 
    4548, 
    4549, 
    4550, 
    4551, 
    4552, 
    4553, 
    4554, 
    4555, 
    4556, 
    4557, 
    4558, 
    4559, 
    4560, 
    4561, 
    4562, 
    4563, 
    4564, 
    4565, 
    4566, 
    4567, 
    4568, 
    4569, 
    4570, 
    4571, 
    4572, 
    4573, 
    4574, 
    4575, 
    4576, 
    4577, 
    4578, 
    4579, 
    4580, 
    4581, 
    4582, 
    4583, 
    4584, 
    4585, 
    4586, 
    4587, 
    4588, 
    4589, 
    4590, 
    4591, 
    4592, 
    4593, 
    4594, 
    4595, 
    4596, 
    4597, 
    4598, 
    4599, 
    4600, 
    4601, 
    4602, 
    4603, 
    4604, 
    4605, 
    4606, 
    4607, 
    4608, 
    4609, 
    4610, 
    4611, 
    4612, 
    4613, 
    4614, 
    4615, 
    4616, 
    4617, 
    4618, 
    4619, 
    4620, 
    4621, 
    4622, 
    4623, 
    4624, 
    4625, 
    4626, 
    4627, 
    4628, 
    4629, 
    4630, 
    4631
  ], 
  "heads": [[3811, 0, 0]], 
  "attrs": {"mxnet_version": ["int", 10300]}
}